app/src/main/assets/action.tflite (tflite, 279080 bytes, 42 tensors)

sequential/dense_2/MatMul f4 [3, 32]
-0.01972966 -0.349893 0.083853014 -0.22918195 0.08201586 -0.23619919 0.38409775 -0.16519739
-0.36339802 0.009187049 -0.25650948 -0.13374767 0.018483128 0.3421827 0.023847511 0.17775899
0.35439637 0.19648935 -0.052555256 0.33038038 -0.30304936 -0.013025872 0.1133342 -0.07610163
-0.3890232 -0.11915858 0.12728302 -0.027322125 -0.16777931 0.05586129 -0.09399319 -0.26046184
-0.12608956 -0.37184575 0.16912979 -0.048322007 -0.41699204 0.20415911 -0.31814274 -0.42740244
0.0936608 0.26437604 0.28699142 0.27426592 0.27882344 -0.16245925 0.030713035 0.23493914
0.14510539 -0.29779777 0.07259881 -0.19523075 -0.096979365 0.29686135 -0.19206913 0.25610235
0.0009950089 0.34098586 -0.038979646 0.16434549 0.27277 -0.023958 0.12501664 0.21828818
-0.2762435 -0.27984768 -0.36405277 0.13894345 0.19592153 0.3130024 -0.09526962 -0.26264742
0.110664174 0.15708694 -0.007830139 0.10522523 -0.16072007 -0.38799745 -0.120576754 0.20034592
-0.39506945 -0.3676779 -0.283279 0.27228516 -0.011997924 0.33940405 -0.14311327 -0.28356627
-0.10874448 0.16557442 0.039232545 0.09261557 -0.3611494 -0.16568035 0.32598302 0.17431316
00000000: 19a0 a1bc 2d25 b3be 21bb ab3d acae 6abe
00000010: eef7 a73d 33de 71be 76a8 c43e 8129 29be
00000020: 4e0f babe 4785 163c 3655 83be 26f5 08be
00000030: ee69 973c 9232 af3e db5b c33c 7406 363e
00000040: 7173 b53e 8134 493e 2e44 57bd 9e27 a93e
00000050: 4929 9bbe 786a 55bc c31b e83d 2cdb 9bbd
00000060: 0d2e c7be 6a09 f4bd 7b56 023e a6d2 dfbc
00000070: 57ce 2bbe cfce 643d 807f c0bd 415b 85be
00000080: 9f1d 01be 9162 bebe 5c30 2d3e 4ced 45bd
00000090: fb7f d5be 160f 513e 9be3 a2be 7ed4 dabe
000000a0: 3cd1 bf3d 4c5c 873e 8af0 923e 956c 8c3e
000000b0: f2c1 8e3e b85b 26be e799 fb3c e393 703e
000000c0: 8296 143e f378 98be afae 943d 92ea 47be
000000d0: 1e9d c6bd 36fe 973e c5ad 44be d91f 833e
000000e0: f56a 823a b395 ae3e 1fa9 1fbd 2f4a 283e
000000f0: 82a8 8b3e 9143 c4bc 5d04 003e f086 5f3e
00000100: ca6f 8dbe 3248 8fbe 2065 babe 3147 0e3e
00000110: a79f 483e da41 a03e b81c c3bd b979 86be
00000120: e6a3 e23d 66db 203e fc49 00bc 5380 d73d
00000130: cd93 24be 9aa7 c6be f2f0 f6bd 7b27 4d3e
00000140: 8b46 cabe 4740 bcbe f209 91be f668 8b3e
00000150: f192 44bc 5ec6 ad3e 498c 12be 992f 91be
00000160: 6db5 debd 578c 293e 4eb2 203d 3bad bd3d
00000170: 93e8 b8be 1ca8 29be 3fe7 a63e 267f 323e

sequential/dense/BiasAdd/ReadVariableOp f4 [64]
0.029022083 -0.00906042 -0.06363584 -0.012735002 -0.012489304 0.019622242 -0.016967488 -0.017416181
0.031214247 0.02178612 0.010479001 -0.02610874 -0.034457784 0.027375663 -0.05000783 -0.01106421
0.003152037 -0.04637865 -0.0332612 -0.025179513 0.014150475 0.028152552 -0.025758406 -0.010033273
0.032544963 -0.027864046 -0.0020367354 -0.025745267 0.021454642 0.023660889 0.009248918 0.0010752955
-0.008094049 -0.018603578 0.004843248 0.0074682045 0.01025201 -0.032174654 0.06471311 -0.019218706
0.06519642 -0.014130982 0.027190523 -0.01601038 0.014492544 -0.03955675 0.040896833 0.079808764
-0.026563752 0.033786085 0.004561598 -0.020767521 0.054928828 0.05977822 -0.018113233 0.06369757
-0.026982484 0.013787289 -0.00088805094 0.021668496 0.016081464 0.001412074 -0.024263535 0.035530612
00000000: b8bf ed3c 2872 14bc 8253 82bd 78a6 50bc
00000010: f09f 4cbc d3be a03c 67ff 8abc 61ac 8ebc
00000020: 05b5 ff3c ce78 b23c 1eb0 2b3c ffe1 d5bc
00000030: 9b23 0dbd ed42 e03c 03d5 4cbd a946 35bc
00000040: 6892 4e3b 8af7 3dbd e53c 08bd 4445 cebc
00000050: 65d7 673c 2ea0 e63c 4b03 d3bc 9962 24bc
00000060: de4d 053d 2443 e4bc c07a 05bb bde7 d2bc
00000070: a5c1 af3c 7bd4 c13c c688 173c eef0 8c3a
00000080: e79c 04bc 8866 98bc 1cb4 9e3b d7b7 f43b
00000090: 0cf8 273c 92c9 03bd 4f88 843d 8c70 9dbc
000000a0: b385 853d a285 67bc a9be de3c 3328 83bc
000000b0: 2372 6d3c 4206 22bd 7083 273d c772 a33d
000000c0: 3a9c d9bc 4763 0a3d 7579 953b a620 aabc
000000d0: 0dfd 603d 02da 743d 3462 94bc df73 823d
000000e0: 5f0a ddbc 15e4 613c 17cc 68ba 2182 b13c
000000f0: 46bd 833c 5715 b93a 52c4 c6bc 8c88 113d

sequential/dense_2/BiasAdd/ReadVariableOp f4 [3]
0.058019646 -0.015260276 -0.041145053
00000000: 02a6 6d3d 3d06 7abc b787 28bd

sequential/dense_1/BiasAdd/ReadVariableOp f4 [32]
0.027869107 -0.06760764 0.025001021 0.04011857 -0.011647416 0.005466179 -0.017869173 -0.0170175
0.001999974 -0.012387822 -0.004108159 -0.018048637 -0.027377274 0.031626675 0.029184062 -0.03082017
0.045821615 0.05328098 0.04724938 0.010834547 -0.06636579 -0.039765883 0.13158046 0.014895339
-0.04088065 -0.04800492 0.07154915 -0.010615078 0.01507327 0.08567375 -0.00057731796 -0.028915307
00000000: c14d e43c e075 8abd f1ce cc3c 5f53 243d
00000010: ced4 3ebc a21d b33b 5f62 92bc 4968 8bbc
00000020: ff11 033b 4bf6 4abc bc9d 86bb bcda 93bc
00000030: 4e46 e0bc f98a 013d 6a13 ef3c 957a fcbc
00000040: 72af 3b3d 283d 5a3d 9188 413d 6283 313c
00000050: caea 87bd 8de1 22bd 07bd 063e 940b 743c
00000060: 7872 27bd cfa0 44bd 5c88 923d ddea 2dbc
00000070: e0f5 763c b875 af3d 2757 17ba cbdf ecbc

sequential/dense/MatMul i1 [64, 64] scale=0.0022590444 zero_point=0
-0.011295222 0.17620547 -0.031626623 0.015813312 0.033885665 -0.13328362 -0.12876554 0.004518089
-0.047439933 -0.047439933 -0.12424745 -0.011295222 -0.18524164 -0.02484949 0.031626623 -0.20557304
0.17168738 0.03614471 -0.0813256 0.06551229 -0.029367577 0.19427782 0.18072355 0.10617509
0.1829826 0.047439933 0.101657 0.1219884 -0.1581331 -0.18072355 -0.14909694 -0.20557304
0.11747031 0.06551229 -0.031626623 -0.031626623 0.16039215 0.19879591 0.09939796 -0.094879866
-0.05195802 0.03614471 0.038403757 -0.045180887 0.11747031 0.119729355 0.094879866 -0.015813312
0.045180887 -0.009036178 0.10617509 0.21009113 0.027108533 0.033885665 -0.18524164 0.23042253
0.10391604 0.07003038 -0.21235017 -0.094879866 -0.027108533 -0.011295222 0.11069318 -0.18524164
-0.13102458 0.094879866 -0.04969898 0.063253246 0.06551229 -0.14683789 0.004518089 -0.1829826
0.16039215 -0.056476112 -0.054217067 0.058735155 -0.04969898 -0.19879591 -0.1219884 -0.11069318
0.029367577 -0.0067771333 0.058735155 0.14457884 0.12650649 0.083584644 -0.23042253 0.14909694
0.054217067 0.12650649 -0.14909694 -0.17168738 -0.18072355 -0.02484949 -0.03614471 0.07906655
-0.17168738 -0.05195802 -0.20783208 0.031626623 -0.083584644 -0.02484949 -0.21235017 0.004518089
0.101657 0.06551229 -0.004518089 0.10391604 0.042921845 -0.076807514 -0.15361503 -0.21912731
-0.17620547 -0.07454847 -0.15587407 0.17846452 0.015813312 0.101657 -0.16039215 -0.12424745
-0.0813256 0.0022590444 0.1219884 0.027108533 -0.119729355 -0.0203314 0.1219884 -0.02484949
-0.24171776 -0.033885665 -0.119729355 -0.1219884 -0.21460922 0.05195802 0.042921845 0.13554266
-0.12650649 -0.090361774 0.11069318 0.029367577 0.17846452 -0.19427782 -0.013554267 -0.19653687
0.12650649 0.21235017 -0.0813256 0.1581331 -0.18975973 -0.054217067 -0.12650649 -0.058735155
0.009036178 0.083584644 -0.16716929 -0.045180887 -0.11747031 0.17394643 0.14006075 0.12424745
0.015813312 0.1219884 -0.18750069 0.06777133 -0.16942833 -0.18750069 0.19201878 -0.0609942
0.12650649 -0.03614471 -0.1829826 -0.14457884 0.0609942 0.15135598 0.07228942 0.18750069
-0.045180887 -0.14006075 0.13102458 -0.17394643 -0.23042253 0.015813312 0.21686827 0.20557304
0.056476112 0.1626512 -0.031626623 0.031626623 -0.013554267 0.0 0.045180887 0.0203314
-0.013554267 0.1626512 -0.090361774 -0.112952225 0.13554266 -0.042921845 -0.16491024 0.1378017
-0.15361503 0.101657 0.14909694 0.18072355 0.19427782 -0.13102458 0.21460922 0.1581331
0.18750069 0.02484949 -0.033885665 0.15361503 -0.1219884 -0.10617509 0.07454847 -0.088102736
-0.08584369 0.17620547 -0.15361503 -0.12424745 -0.0813256 0.011295222 -0.09262082 0.045180887
0.09262082 -0.09939796 0.16942833 0.027108533 -0.1829826 0.09713891 0.15587407 -0.19427782
0.14683789 -0.0067771333 -0.011295222 -0.14006075 0.10843413 -0.15361503 -0.16491024 0.10391604
0.0813256 -0.1219884 0.07228942 0.10843413 0.054217067 -0.18750069 0.14457884 0.17394643
0.15587407 0.08584369 0.058735155 -0.17846452 0.16491024 0.027108533 0.18975973 -0.12650649
00000000: fb4e f207 0fc5 c702 ebeb c9fb aef5 0ea5
00000010: 4c10 dc1d f356 502f 5115 2d36 bab0 bea5
00000020: 341d f2f2 4758 2cd6 e910 11ec 3435 2af9
00000030: 14fc 2f5d 0c0f ae66 2e1f a2d6 f4fb 31ae
00000040: c62a ea1c 1dbf 02af 47e7 e81a eaa8 cacf
00000050: 0dfd 1a40 3825 9a42 1838 beb4 b0f5 f023
00000060: b4e9 a40e dbf5 a202 2d1d fe2e 13de bc9f
00000070: b2df bb4f 072d b9c9 dc01 360c cbf7 36f5
00000080: 95f1 cbca a117 133c c8d8 310d 4faa faa9
00000090: 385e dc46 ace8 c8e6 0425 b6ec cc4d 3e37
000000a0: 0736 ad1e b5ad 55e5 38f0 afc0 1b43 2053
000000b0: ecc2 3ab3 9a07 605b 1948 f20e fa00 1409
000000c0: fa48 d8ce 3ced b73d bc2d 4250 56c6 5f46
000000d0: 530b f144 cad1 21d9 da4e bcc9 dc05 d714
000000e0: 29d4 4b0c af2b 45aa 41fd fbc2 30bc b72e
000000f0: 24ca 2030 18ad 404d 4526 1ab1 490c 54c8

sequential/dense_1/MatMul i1 [32, 64] scale=0.0025282092 zero_point=0
-0.217426 -0.098600164 0.15169255 -0.2705184 0.0025282092 0.1668618 0.03792314 0.22248241
-0.053092394 -0.09607195 0.1921439 0.07078986 0.07078986 -0.042979557 -0.025282092 -0.0075846277
0.17950286 -0.0025282092 -0.26546198 -0.15674898 -0.21489778 -0.0075846277 -0.26293376 0.21489778
0.0834309 -0.12388225 0.0075846277 0.06826165 0.21489778 -0.23006704 0.07584628 -0.25534913
-0.06320523 0.1643336 0.045507766 -0.010112837 0.0075846277 0.14410792 0.12641045 0.22753882
-0.11376941 0.16939002 0.18203107 -0.012641046 -0.07584628 0.020225674 0.18203107 -0.14410792
-0.25029272 0.010112837 -0.15674898 -0.0050564185 0.017697465 0.058148813 -0.26799017 0.18455927
0.11882584 0.21236958 -0.20225674 -0.08848733 0.13399509 -0.2806312 0.116297625 0.103656575
0.06320523 -0.045507766 0.23512346 0.16180539 0.20731315 0.042979557 -0.073318064 0.17950286
-0.13146688 -0.07584628 0.07078986 0.015169255 0.098600164 0.21995421 -0.20225674 0.22501062
-0.21489778 -0.03033851 0.21236958 0.23259525 0.22501062 0.1643336 0.20478494 -0.1643336
0.1921439 0.18455927 0.13146688 -0.0834309 0.03539493 0.28821585 -0.055620603 0.2755748
-0.108713 0.053092394 0.0050564185 0.27810302 -0.12135404 0.11882584 0.12135404 -0.0025282092
0.06826165 0.1365233 -0.11124121 -0.22753882 0.012641046 0.040451348 -0.03286672 0.1643336
0.12135404 -0.025282092 0.0025282092 0.12135404 0.03033851 -0.103656575 0.103656575 0.11124121
-0.055620603 0.03286672 0.15169255 -0.06826165 -0.020225674 0.17444643 0.040451348 0.103656575
0.098600164 -0.012641046 0.14157972 0.14410792 0.053092394 -0.20984137 -0.15674898 -0.22753882
0.042979557 0.22501062 0.20731315 0.085959114 -0.2477645 -0.015169255 -0.09607195 -0.012641046
0.015169255 -0.16180539 -0.020225674 -0.14410792 0.03792314 -0.14157972 -0.23512346 0.025282092
-0.12388225 0.26293376 0.21995421 -0.14916435 0.042979557 0.19972853 0.12135404 0.20225674
-0.17444643 0.17444643 -0.19467211 -0.19972853 -0.050564185 -0.15422076 0.14157972 -0.03033851
0.07837449 0.15674898 -0.13399509 0.21995421 0.22501062 0.07584628 -0.21489778 -0.12135404
0.15927719 0.11376941 0.11882584 0.21995421 0.20478494 -0.18708748 0.13399509 -0.13399509
0.20984137 -0.025282092 -0.09101553 0.20225674 0.13146688 -0.103656575 0.20731315 0.045507766
-0.058148813 0.16180539 0.045507766 -0.10618479 -0.20478494 -0.0025282092 0.25534913 0.022753883
0.15169255 -0.085959114 -0.07584628 0.18708748 -0.1896157 0.22248241 -0.15674898 0.15422076
-0.015169255 0.06320523 0.1896157 -0.045507766 -0.022753883 0.20478494 -0.048035976 0.010112837
0.027810302 -0.09354374 -0.1365233 -0.07837449 -0.10618479 0.17444643 0.053092394 0.19720033
0.17444643 0.06067702 0.09101553 0.20984137 0.103656575 0.14157972 0.15169255 -0.0075846277
-0.13905151 0.18708748 -0.13146688 -0.12893867 0.1921439 -0.18708748 0.09354374 0.116297625
0.26040554 0.10618479 -0.0025282092 -0.13146688 0.06573344 -0.19972853 0.29327226 -0.19467211
0.08848733 0.32108256 0.03033851 0.11376941 -0.18455927 0.28568766 0.10618479 -0.18455927
00000000: aad9 3c95 0142 0f58 ebda 4c1c 1cef f6fd
00000010: 47ff 97c2 abfd 9855 21cf 031b 55a5 1e9b
00000020: e741 12fc 0339 325a d343 48fb e208 48c7
00000030: 9d04 c2fe 0717 9649 2f54 b0dd 3591 2e29
00000040: 19ee 5d40 5211 e347 cce2 1c06 2757 b059
00000050: abf4 545c 5941 51bf 4c49 34df 0e72 ea6d
00000060: d515 026e d02f 30ff 1b36 d4a6 0510 f341
00000070: 30f6 0130 0cd7 292c ea0d 3ce5 f845 1029
00000080: 27fb 3839 15ad c2a6 1159 5222 9efa dafb
00000090: 06c0 f8c7 0fc8 a30a cf68 57c5 114f 3050
000000a0: bb45 b3b1 ecc3 38f4 1f3e cb57 591e abd0
000000b0: 3f2d 2f57 51b6 35cb 53f6 dc50 34d7 5212
000000c0: e940 12d6 afff 6509 3cde e24a b558 c23d
000000d0: fa19 4bee f751 ed04 0bdb cae1 d645 154e
000000e0: 4518 2453 2938 3cfd c94a cccd 4cb6 252e
000000f0: 672a ffcc 1ab1 74b3 237f 0c2d b771 2ab7

sequential/lstm/while/lstm_cell/split_1 f4 [64]
0.0039740996 -0.0008396854 -0.020759335 -0.020393027 -0.004172115 -0.010899924 0.00046964653 -0.0041870596
-0.0073607233 -0.007705195 -0.013889212 0.0062290267 0.0034848915 -0.008232856 0.011281162 -0.019944023
-0.01830624 -0.013750115 -0.002200098 -0.008795968 -0.020616805 -0.021686193 0.0045445873 -0.01432549
-0.0030845029 0.008116246 -0.008014152 -0.022300187 -0.026497902 -0.010773427 -0.01554259 -0.005848903
0.009031781 -0.013208012 -0.020066235 -0.001002276 -0.021701774 0.011444557 -0.0072058733 -0.00081539544
-0.0139668835 -0.0064380113 -0.020596666 -0.02058069 -0.012207706 -0.010917184 -0.0063050217 0.015822347
-0.015972432 0.023689099 -0.006698735 0.0022100594 8.099204e-13 -0.021826323 -0.012957619 0.0044763815
-0.005864196 -0.008094386 -0.008839899 -0.004378573 -0.009765884 0.00661949 0.0026802875 -0.015264649
00000000: 2a39 823b 551e 5cba 7b0f aabc 470f a7bc
00000010: 3db6 88bb 9895 32bc e43a f639 9a33 89bb
00000020: 3932 f1bb dc7b fcbb 948f 63bc dd1c cc3b
00000030: c762 643b 1ae3 06bc 9fd4 383c a661 a3bc
00000040: f8f6 95bc 2a48 61bc 852f 10bb f71c 10bc
00000050: 93e4 a8bc 3ea7 b1bc c3ea 943b 76b5 6abc
00000060: 5f25 4abb 01fa 043c ca4d 03bc e2ae b6bc
00000070: 2112 d9bc 0783 30bc 59a6 7ebc 28a8 bfbb
00000080: 09fa 133c 6b66 58bc f261 a4bc cd5e 83ba
00000090: ebc7 b1bc f481 3b3c 3f1f ecbb 43c0 55ba
000000a0: 5bd5 64bc f4f5 d2bb 57ba a8bc d698 a8bc
000000b0: d502 48bc fddd 32bc 5b9a cebb de9d 813c
000000c0: 9ed8 82bc a40f c23c 1081 dbbb a5d6 103b
000000d0: eaf8 632b 1ecd b2bc 314c 54bc 9cae 923b
000000e0: 7128 c0bb 519e 04bc 39d5 10bc 227a 8fbb
000000f0: 1601 20bc 4fe8 d83b c3a7 2f3b 9418 7abc

sequential/lstm/while/lstm_cell/split_11 f4 [64]
-0.012764139 -0.008392259 -0.01992802 -0.021037435 -0.008039671 -0.00971347 -0.0059830095 0.001527581
-0.01189195 -0.008443622 -0.014568584 0.0021209372 -0.0002999355 -0.007610281 0.002120069 -0.018548539
-0.008672202 -0.013766719 -0.0043140673 -0.012944228 -0.01841446 -0.024117023 -0.00085558137 -0.01478759
-0.004416559 0.0091548525 0.0015276677 -0.019120127 -0.014880632 -0.0040222625 -0.015817346 0.010302771
-0.0002073156 -0.008228352 -0.013868209 0.013106086 -0.022299055 0.018654749 -0.0053402265 -0.0068872436
-0.013184205 -0.0045445105 -0.021735406 -0.016765308 -0.014127503 -0.013163664 -0.006697193 -0.0014820604
-0.0079961205 -0.017108396 -0.0066774427 0.018889047 2.6037368e-11 -0.009031796 -0.02319947 0.00042233072
-0.0048828283 -0.004191834 -0.009828728 0.006655996 -0.012246166 0.0019980413 -0.006108909 -0.019830603
00000000: ae20 51bc af7f 09bc 1640 a3bc b356 acbc
00000010: d3b8 03bc 3f25 1fbc 1f0d c4bb 1d39 c83a
00000020: 74d6 42bc 1e57 0abc 12b1 6ebc 6cff 0a3b
00000030: a940 9db9 aa5f f9bb dbf0 0a3b 1bf3 97bc
00000040: da15 0ebc ce8d 61bc 055d 8dbb 0714 54bc
00000050: ecd9 96bc 1091 c5bc 1849 60ba a647 72bc
00000060: c8b8 90bb 3cfe 153c 063c c83a d0a1 9cbc
00000070: e5cd 73bc 2fcd 83bb 6193 81bc f4cc 283c
00000080: dc62 59b9 36d0 06bc 7c37 63bc e9ba 563c
00000090: 82ac b6bc d8d1 983c 11fd aebb 63ae e1bb
000000a0: 9002 58bc 1eea 94bb 730e b2bc 6657 89bc
000000b0: 0b77 67bc 69ac 57bc 2074 dbbb b241 c2ba
000000c0: 2902 03bc e826 8cbc 73ce dabb 34bd 9a3c
000000d0: f106 e52d 19fa 13bc d10c bebc 456c dd39
000000e0: 2200 a0bb a75b 89bb ac08 21bc 8b1a da3b
000000f0: 25a4 48bc 92f1 023b 3e2d c8bb ca73 a2bc

sequential/lstm/while/lstm_cell/split_12 f4 [64]
0.9857523 1.0021772 0.9812893 0.9783169 1.0032756 0.9933427 0.9972915 0.9839218
0.99757046 0.99322873 0.9903239 0.99519855 0.98982817 0.99226743 1.0391374 0.9849769
0.9869774 1.0002141 0.99698824 0.9932987 0.99412763 0.99488395 0.99571556 0.98756766
0.9916477 0.9948382 0.9959737 0.98403996 1.0007552 0.9911465 0.9919735 0.9893745
0.98172426 0.9866744 0.97927475 1.0020384 0.9779982 0.99959826 0.9944645 0.9914583
1.0004222 0.99348545 0.99225074 1.0073677 0.9890199 0.9860045 0.99379694 0.9914028
0.9852195 0.9797993 0.99552286 1.0120413 1.0 1.0038841 0.99211556 1.0037899
0.9932173 0.9895291 0.99154377 0.99888915 0.99456257 0.9996671 1.001394 0.98640364
00000000: 435a 7c3f 5847 803f c735 7b3f fa72 7a3f
00000010: 566b 803f b54b 7e3f 7f4e 7f3f 4de2 7b3f
00000020: c760 7f3f 3d44 7e3f de85 7d3f 55c5 7e3f
00000030: 6165 7d3f 3d05 7e3f 7402 853f 7227 7c3f
00000040: 8daa 7c3f 0407 803f 9f3a 7f3f d348 7e3f
00000050: 267f 7e3f b7b0 7e3f 37e7 7e3f 3cd1 7c3f
00000060: a0dc 7d3f b7ad 7e3f 22f8 7e3f 0bea 7b3f
00000070: bf18 803f c7bb 7d3f faf1 7d3f a647 7d3f
00000080: 4852 7b3f b296 7c3f c0b1 7a3f cb42 803f
00000090: 175e 7a3f ace5 7f3f 3a95 7e3f 36d0 7d3f
000000a0: d60d 803f 1055 7e3f 2504 7e3f 6df1 803f
000000b0: 6830 7d3f ca6a 7c3f 7a69 7e3f 93cc 7d3f
000000c0: 5837 7c3f 20d4 7a3f 96da 7e3f 928a 813f
000000d0: 0000 803f 467f 803f 49fb 7d3f 307c 803f
000000e0: 7d43 7e3f c751 7d3f d0d5 7d3f 33b7 7f3f
000000f0: a79b 7e3f 2fea 7f3f ae2d 803f f384 7c3f

sequential/lstm/while/lstm_cell/split_13 f4 [64]
0.008818001 -0.0057025924 -0.014023606 -0.016792392 -0.006762327 -0.011064102 -0.002200399 -0.011979127
-0.0046464372 -0.008727365 0.0021805293 0.0049793753 0.003823415 -0.008237754 0.029343277 -0.020075805
-0.014347292 0.00018824922 -0.0022914829 -0.008273459 -0.008959975 -0.017545214 0.0067134197 -0.014011737
0.0023358983 0.012330997 -0.012322453 -0.021928696 -0.0048238947 -0.01601785 -0.008412875 0.00074170536
0.0037045004 -0.011398797 -0.01574287 0.014390368 -0.024673397 0.012117426 -0.0054630213 -0.0075932983
-0.012221801 -0.006357994 -0.010293391 -0.015124334 -0.01109614 -0.014421711 -0.00632896 0.013750827
-0.0123060625 -0.01819522 -0.0062417844 0.012680997 2.5149804e-13 -0.01720796 -0.008021647 -0.0006618249
-0.004787677 -0.010633388 -0.008377937 0.0006368949 -0.010634024 0.006572027 0.011891772 -0.017445311
00000000: 6079 103c d0dc babb 44c3 65bc 3390 89bc
00000010: 8396 ddbb 3546 35bc 9234 10bb 1a44 44bc
00000020: 2441 98bb 39fd 0ebc 36e7 0e3b 072a a33b
00000030: 4292 7a3b a5f7 06bc 5061 f03c 0476 a4bc
00000040: e710 6bbc c464 4539 b42c 16bb 678d 07bc
00000050: dccc 12bc fbba 8fbc 3ffc db3b 7c91 65bc
00000060: df15 193b f307 4a3c 1de4 49bc cfa3 b3bc
00000070: c311 9ebb de37 83bc 28d6 09bc 016f 423a
00000080: 34c7 723b 05c2 3abc 31f7 80bc 94c5 6b3c
00000090: dd1f cabc 2b88 463c 2503 b3bb 34d1 f8bb
000000a0: f33d 48bc b856 d0bb 9ca5 28bc 0ecc 77bc
000000b0: 96cc 35bc 0a49 6cbc 2a63 cfbb 264b 613c
000000c0: 5e9f 49bc 240e 95bc e287 ccbb f5c3 4f3c
000000d0: b094 8d2a b5f7 8cbc 3a6d 03bc 517e 2dba
000000e0: f2e1 9cbb a937 2ebc 9d43 09bc 4bf5 263a
000000f0: 543a 2ebc 295a d73b b5d5 423c 78e9 8ebc

sequential/lstm/while/lstm_cell/MatMul_41 i1 [64, 64] scale=0.0017012337 zero_point=0
0.09697032 0.06464688 -0.0034024674 -0.12248883 0.05614071 0.057841945 0.015311103 -0.040829606
-0.05103701 -0.11568389 -0.030622207 0.0068049347 0.11228142 -0.052738246 -0.013609869 -0.103775255
0.08846415 -0.015311103 0.0017012337 0.015311103 0.027219739 0.06464688 0.0068049347 -0.035725906
-0.13269623 -0.06294565 0.022116037 -0.020414803 -0.037427142 0.008506169 -0.039128374 -0.06634811
0.040829606 0.013609869 -0.040829606 -0.059543177 -0.027219739 0.010207402 0.07145181 0.013609869
-0.057841945 -0.0119086355 -0.07655551 0.052738246 0.040829606 -0.06634811 -0.12759252 -0.049335778
-0.06804935 -0.034024674 -0.07655551 0.03232344 -0.090165384 0.12759252 0.047634542 -0.028920973
0.054439478 -0.11228142 0.047634542 0.0068049347 0.03232344 0.0119086355 0.06634811 0.0034024674
-0.030622207 -0.037427142 0.023817271 0.06294565 0.039128374 -0.03232344 0.042530842 0.015311103
-0.057841945 -0.018713571 -0.0068049347 0.005103701 0.015311103 -0.023817271 0.013609869 -0.04593331
0.020414803 -0.030622207 -0.12759252 0.0017012337 -0.113982655 -0.044232074 0.040829606 -0.103775255
0.015311103 -0.030622207 -0.020414803 -0.059543177 -0.028920973 -0.010207402 -0.12929375 0.005103701
0.12929375 0.017012337 0.005103701 0.04593331 -0.059543177 -0.07655551 -0.13099499 0.035725906
-0.061244413 -0.059543177 -0.059543177 0.030622207 -0.010207402 -0.040829606 -0.040829606 0.028920973
-0.015311103 0.124190055 0.049335778 0.03232344 -0.095269084 0.100372784 -0.018713571 -0.054439478
0.11738513 0.017012337 0.040829606 -0.0034024674 -0.057841945 -0.017012337 0.06975058 -0.0068049347
0.034024674 -0.005103701 -0.09186662 -0.07145181 0.030622207 0.11568389 -0.022116037 -0.11568389
-0.1360987 0.085061684 -0.06634811 -0.042530842 0.008506169 -0.093567856 -0.07655551 -0.010207402
0.07145181 0.017012337 -0.07315305 0.030622207 0.018713571 -0.018713571 -0.0068049347 0.010207402
0.07145181 0.10207402 -0.113982655 -0.04593331 -0.085061684 -0.11058019 0.06804935 0.1463061
-0.07825675 -0.06634811 -0.013609869 0.013609869 -0.008506169 0.040829606 0.035725906 0.0068049347
0.074854285 0.11738513 -0.035725906 -0.05103701 0.05614071 -0.093567856 0.074854285 -0.0017012337
0.03232344 0.09186662 0.03232344 -0.08676292 0.0017012337 0.044232074 0.05103701 -0.079957984
-0.07825675 -0.07825675 -0.025518505 -0.07825675 -0.090165384 -0.022116037 -0.008506169 -0.028920973
0.005103701 -0.15481226 -0.11058019 0.015311103 0.010207402 -0.027219739 -0.023817271 -0.061244413
-0.042530842 0.07315305 0.08676292 -0.017012337 0.022116037 -0.017012337 0.022116037 -0.1258913
0.020414803 -0.108878955 -0.10547649 0.047634542 0.013609869 -0.11228142 0.047634542 -0.028920973
-0.052738246 -0.010207402 0.0119086355 0.04593331 0.08846415 0.10547649 0.090165384 -0.07315305
0.09697032 0.022116037 0.0119086355 -0.05103701 -0.049335778 -0.07825675 0.013609869 -0.1667209
0.05103701 0.005103701 -0.07655551 0.095269084 -0.023817271 0.027219739 -0.17352584 -0.047634542
-0.057841945 0.057841945 0.034024674 0.0068049347 -0.05614071 -0.044232074 0.0119086355 0.0
-0.047634542 -0.049335778 -0.05614071 0.08846415 -0.022116037 -0.093567856 -0.034024674 0.028920973
00000000: 3926 feb8 2122 09e8 e2bc ee04 42e1 f8c3
00000010: 34f7 0109 1026 04eb b2db 0df4 ea05 e9d9
00000020: 1808 e8dd f006 2a08 def9 d31f 18d9 b5e3
00000030: d8ec d313 cb4b 1cef 20be 1c04 1307 2702
00000040: eeea 0e25 17ed 1909 def5 fc03 09f2 08e5
00000050: 0cee b501 bde6 18c3 09ee f4dd effa b403
00000060: 4c0a 031b ddd3 b315 dcdd dd12 fae8 e811
00000070: f749 1d13 c83b f5e0 450a 18fe def6 29fc
00000080: 14fd cad6 1244 f3bc b032 d9e7 05c9 d3fa
00000090: 2a0a d512 0bf5 fc06 2a3c bde5 cebf 2856
000000a0: d2d9 f808 fb18 1504 2c45 ebe2 21c9 2cff
000000b0: 1336 13cd 011a 1ed1 d2d2 f1d2 cbf3 fbef
000000c0: 03a5 bf09 06f0 f2dc e72b 33f6 0df6 0db6
000000d0: 0cc0 c21c 08be 1cef e1fa 071b 343e 35d5
000000e0: 390d 07e2 e3d2 089e 1e03 d338 f210 9ae4
000000f0: de22 1404 dfe6 0700 e4e3 df34 f3c9 ec11

sequential/lstm/while/lstm_cell/MatMul_5 i1 [64, 64] scale=0.0020036048 zero_point=0
-0.12422349 0.14025234 -0.1683028 0.048086517 -0.028050467 0.0020036048 0.056100935 -0.11420547
0.04608291 -0.012021629 -0.044079304 0.0 -0.030054072 0.09216582 -0.044079304 0.034061283
-0.010018024 -0.066118956 -0.038068492 0.0020036048 0.10018024 -0.106191054 -0.024043258 -0.028050467
-0.076136984 -0.020036047 -0.012021629 0.020036047 -0.106191054 0.018032443 -0.116209075 0.008014419
-0.05409733 -0.018032443 -0.008014419 0.0040072096 0.016028838 -0.11019826 0.06411535 -0.032057676
-0.1662992 -0.018032443 -0.060108144 0.062111747 0.0420757 0.066118956 -0.040072095 0.034061283
0.040072095 -0.010018024 0.026046863 0.028050467 -0.0821478 0.030054072 0.028050467 -0.15828478
0.0420757 -0.038068492 -0.028050467 -0.044079304 0.07814059 -0.052093726 0.008014419 -0.0821478
-0.048086517 -0.0420757 0.066118956 -0.008014419 -0.09617303 0.04608291 0.008014419 -0.034061283
0.038068492 -0.0040072096 -0.048086517 0.044079304 -0.060108144 -0.15227397 0.032057676 -0.026046863
0.060108144 0.016028838 0.106191054 -0.0420757 0.022039652 0.028050467 0.036064886 0.060108144
0.048086517 -0.05409733 0.09416942 -0.074133374 -0.086155005 -0.08014419 -0.008014419 0.008014419
0.052093726 -0.008014419 -0.008014419 -0.038068492 -0.07012617 0.020036047 -0.012021629 -0.032057676
0.014025234 -0.044079304 0.07212977 -0.052093726 -0.07814059 -0.098176636 -0.060108144 -0.13824873
0.05409733 -0.026046863 0.036064886 0.016028838 -0.026046863 -0.032057676 -0.032057676 -0.11220187
-0.11220187 -0.032057676 0.022039652 -0.034061283 -0.1262271 -0.012021629 -0.11220187 -0.022039652
-0.0060108146 0.058104537 -0.0040072096 0.038068492 0.058104537 -0.048086517 0.0821478 0.044079304
-0.010018024 0.030054072 -0.026046863 0.016028838 -0.014025234 0.038068492 0.024043258 -0.098176636
-0.016028838 -0.05009012 -0.012021629 0.09617303 -0.068122566 0.032057676 -0.08815861 0.0020036048
-0.030054072 -0.022039652 0.058104537 0.13023432 0.010018024 -0.04608291 -0.062111747 0.030054072
-0.08014419 0.008014419 0.0040072096 -0.010018024 0.014025234 -0.018032443 0.044079304 0.05009012
0.034061283 0.09416942 0.0040072096 0.04608291 -0.09416942 -0.056100935 -0.0060108146 -0.10418745
-0.15427756 0.016028838 -0.0841514 -0.04608291 -0.0420757 0.022039652 -0.09416942 0.19034246
-0.022039652 -0.048086517 0.014025234 0.06411535 -0.056100935 -0.020036047 -0.076136984 0.0420757
-0.074133374 -0.022039652 -0.022039652 -0.056100935 -0.060108144 -0.012021629 0.010018024 -0.032057676
0.030054072 0.062111747 0.05409733 -0.022039652 0.018032443 0.08014419 0.010018024 -0.012021629
-0.008014419 0.0841514 -0.1262271 -0.062111747 -0.012021629 -0.06411535 0.036064886 0.076136984
-0.036064886 -0.0060108146 0.016028838 -0.09016222 -0.056100935 -0.014025234 0.060108144 -0.048086517
-0.032057676 -0.024043258 -0.048086517 -0.15828478 0.018032443 0.074133374 0.0420757 0.060108144
0.074133374 -0.048086517 -0.07212977 0.09016222 -0.012021629 -0.058104537 -0.010018024 -0.13824873
0.06411535 0.034061283 0.04608291 0.068122566 0.0020036048 0.060108144 0.06411535 0.14225593
0.044079304 -0.052093726 -0.116209075 -0.048086517 0.062111747 0.0040072096 0.1282307 0.07212977
00000000: c246 ac18 f201 1cc7 17fa ea00 f12e ea11
00000010: fbdf ed01 32cb f4f2 daf6 fa0a cb09 c604
00000020: e5f7 fc02 08c9 20f0 adf7 e21f 1521 ec11
00000030: 14fb 0d0e d70f 0eb1 15ed f2ea 27e6 04d7
00000040: e8eb 21fc d017 04ef 13fe e816 e2b4 10f3
00000050: 1e08 35eb 0b0e 121e 18e5 2fdb d5d8 fc04
00000060: 1afc fced dd0a faf0 07ea 24e6 d9cf e2bb
00000070: 1bf3 1208 f3f0 f0c8 c8f0 0bef c1fa c8f5
00000080: fd1d fe13 1de8 2916 fb0f f308 f913 0ccf
00000090: f8e7 fa30 de10 d401 f1f5 1d41 05e9 e10f
000000a0: d804 02fb 07f7 1619 112f 0217 d1e4 fdcc
000000b0: b308 d6e9 eb0b d15f f5e8 0720 e4f6 da15
000000c0: dbf5 f5e4 e2fa 05f0 0f1f 1bf5 0928 05fa
000000d0: fc2a c1e1 fae0 1226 eefd 08d3 e4f9 1ee8
000000e0: f0f4 e8b1 0925 151e 25e8 dc2d fae3 fbbb
000000f0: 2011 1722 011e 2047 16e6 c6e8 1f02 4024

sequential/lstm/while/lstm_cell/MatMul_6 i1 [64, 64] scale=0.0018488701 zero_point=0
-0.04807062 -0.04067514 0.06840819 0.06840819 0.09983899 -0.077652544 0.0055466103 -0.11462995
0.009244351 -0.0055466103 -0.044372883 -0.04622175 0.051768363 -0.118327685 0.10908333 0.057314973
0.05361723 0.059163842 0.038826272 -0.0055466103 -0.051768363 -0.077652544 -0.08319915 -0.14051412
-0.08504802 0.103536725 0.06471045 0.0073954803 -0.049919493 -0.031430792 0.049919493 -0.06655932
0.0055466103 0.09983899 0.06471045 0.051768363 -0.08135028 0.0073954803 0.014790961 0.02773305
0.04622175 0.057314973 0.03512853 -0.044372883 -0.02773305 0.075803675 0.018488701 0.13681638
-0.01663983 -0.02033757 -0.075803675 -0.038826272 0.088745765 0.13866526 0.02033757 -0.018488701
0.012942091 0.038826272 0.06101271 0.044372883 0.03512853 -0.06840819 -0.02403531 0.116478816
0.12757203 0.057314973 -0.075803675 0.0055466103 -0.090594634 0.031430792 -0.0018488701 0.06840819
0.02773305 -0.06655932 -0.04807062 0.105385594 -0.029581921 0.02033757 0.103536725 -0.09614124
0.077652544 0.014790961 0.049919493 0.073954806 0.038826272 -0.103536725 0.0 0.029581921
0.04252401 0.0036977401 0.073954806 0.11278108 -0.049919493 -0.012942091 -0.06840819 0.02773305
0.04622175 0.031430792 -0.062861584 0.06471045 -0.014790961 -0.0554661 0.022186441 0.04252401
0.0924435 0.04622175 -0.009244351 -0.08135028 0.13681638 -0.059163842 -0.029581921 -0.012942091
0.06655932 -0.06655932 0.011093221 -0.10723446 -0.014790961 -0.049919493 -0.06101271 -0.01663983
-0.13496752 0.08319915 0.014790961 0.07025706 0.142363 -0.02403531 0.13681638 -0.018488701
-0.011093221 0.038826272 -0.0554661 0.012942091 0.0 0.012942091 -0.075803675 -0.029581921
0.018488701 -0.02033757 -0.0055466103 0.08504802 -0.0055466103 -0.025884181 -0.029581921 0.02033757
-0.08504802 -0.08504802 -0.088745765 0.051768363 0.025884181 -0.038826272 -0.0924435 -0.16454944
-0.029581921 -0.036977403 -0.06471045 -0.011093221 -0.0036977401 -0.11462995 0.04807062 -0.0868969
0.009244351 -0.0036977401 0.07025706 0.04807062 0.022186441 -0.06471045 0.044372883 0.012942091
0.07950141 0.06101271 0.02033757 -0.03327966 -0.0073954803 -0.0018488701 0.018488701 0.038826272
0.02403531 0.012942091 0.18118927 0.049919493 0.04807062 -0.088745765 0.03327966 0.0868969
-0.0018488701 0.012942091 -0.090594634 -0.09614124 -0.04252401 0.04622175 0.0073954803 -0.17009604
0.07210593 -0.1294209 0.009244351 -0.044372883 -0.08504802 0.13126977 0.09429237 -0.011093221
-0.062861584 -0.06840819 0.011093221 0.04252401 -0.03512853 0.116478816 0.0055466103 0.012942091
0.0 0.02033757 -0.057314973 -0.103536725 0.073954806 -0.04807062 -0.022186441 -0.12202542
-0.10723446 -0.022186441 0.04807062 0.13866526 0.038826272 0.0018488701 0.02033757 0.031430792
-0.07210593 -0.04622175 -0.13126977 -0.0018488701 0.06101271 0.0055466103 -0.0055466103 0.03512853
0.01663983 0.0 -0.08504802 0.012942091 0.0924435 0.07025706 0.09983899 -0.012942091
-0.0018488701 0.0 -0.018488701 0.011093221 -0.08135028 0.13496752 -0.018488701 0.06101271
0.13866526 -0.04622175 0.036977403 -0.0073954803 -0.03512853 -0.09983899 -0.02403531 -0.05361723
00000000: e6ea 2525 36d6 03c2 05fd e8e7 1cc0 3b1f
00000010: 1d20 15fd e4d6 d3b4 d238 2304 e5ef 1bdc
00000020: 0336 231c d404 080f 191f 13e8 f129 0a4a
00000030: f7f5 d7eb 304b 0bf6 0715 2118 13db f33f
00000040: 451f d703 cf11 ff25 0fdc e639 f00b 38cc
00000050: 2a08 1b28 15c8 0010 1702 283d e5f9 db0f
00000060: 1911 de23 f8e2 0c17 3219 fbd4 4ae0 f0f9
00000070: 24dc 06c6 f8e5 dff7 b72d 0826 4df3 4af6
00000080: fa15 e207 0007 d7f0 0af5 fd2e fdf2 f00b
00000090: d2d2 d01c 0eeb cea7 f0ec ddfa fec2 1ad1
000000a0: 05fe 261a 0cdd 1807 2b21 0bee fcff 0a15
000000b0: 0d07 621b 1ad0 122f ff07 cfcc e919 04a4
000000c0: 27ba 05e8 d247 33fa dedb 0617 ed3f 0307
000000d0: 000b e1c8 28e6 f4be c6f4 1a4b 1501 0b11
000000e0: d9e7 b9ff 2103 fd13 0900 d207 3226 36f9
000000f0: ff00 f606 d449 f621 4be7 14fc edca f3e3

sequential/lstm/while/lstm_cell/MatMul_7 i1 [64, 64] scale=0.0019790085 zero_point=0
-0.01385306 -0.106866464 0.0098950425 -0.011874052 -0.061349265 -0.04155918 0.09103439 -0.04155918
-0.017811077 -0.015832068 -0.07124431 0.13061456 -0.01385306 -0.073223315 0.03958017 -0.047496207
-0.033643145 -0.08905538 0.031664137 -0.05739125 -0.07718133 0.019790085 0.04155918 -0.025727112
0.11082448 0.03958017 0.0019790085 -0.005937026 -0.02770612 0.03760116 -0.019790085 0.0019790085
0.007916034 -0.05739125 0.023748104 -0.019790085 -0.023748104 0.035622153 -0.045517195 0.06728629
0.0930134 0.12665655 0.13061456 0.061349265 0.12269853 0.043538187 0.005937026 0.025727112
-0.015832068 0.017811077 0.05541224 0.017811077 -0.019790085 -0.015832068 -0.059370257 -0.07124431
-0.017811077 0.017811077 -0.061349265 -0.10290845 -0.07124431 0.05541224 -0.005937026 -0.033643145
0.0098950425 0.021769093 0.1147825 0.045517195 -0.025727112 0.025727112 -0.017811077 -0.07520232
0.05541224 0.02770612 0.05541224 0.06332827 -0.051454224 -0.017811077 0.059370257 0.015832068
-0.047496207 -0.045517195 0.1147825 -0.045517195 -0.0019790085 0.08311836 0.025727112 -0.005937026
-0.13457258 0.17811076 0.03958017 0.07718133 -0.13061456 0.033643145 0.017811077 0.031664137
-0.02770612 0.03760116 0.059370257 0.015832068 -0.09895043 0.0019790085 -0.019790085 -0.0692653
-0.0098950425 -0.08113935 0.08113935 -0.07520232 0.0 -0.011874052 -0.061349265 0.01385306
0.13259357 0.035622153 0.06530728 0.0930134 0.06728629 0.0019790085 -0.061349265 -0.025727112
0.15832068 -0.035622153 0.031664137 -0.13457258 0.07916034 0.03958017 0.1642577 0.043538187
-0.003958017 0.11082448 0.13061456 -0.043538187 -0.053433232 -0.10884547 0.005937026 0.043538187
0.023748104 0.025727112 -0.104887456 0.021769093 0.05541224 -0.017811077 0.051454224 -0.02770612
0.0692653 -0.059370257 -0.11082448 -0.059370257 -0.051454224 0.1147825 -0.10290845 0.03958017
0.031664137 -0.1622787 0.029685128 0.118740514 -0.06728629 0.029685128 0.045517195 -0.003958017
0.025727112 -0.104887456 -0.029685128 0.061349265 0.061349265 -0.045517195 -0.015832068 -0.02770612
0.015832068 -0.0098950425 0.017811077 0.031664137 -0.01385306 -0.07124431 0.04155918 -0.021769093
-0.051454224 -0.059370257 0.0 0.13655159 -0.06530728 0.051454224 0.073223315 -0.03760116
-0.04155918 0.003958017 -0.023748104 -0.106866464 0.19394284 -0.043538187 0.015832068 -0.005937026
0.053433232 -0.011874052 -0.035622153 -0.003958017 0.07916034 -0.061349265 -0.06530728 0.0
-0.003958017 -0.005937026 0.01385306 0.06530728 -0.05541224 -0.02770612 -0.1385306 -0.02770612
0.025727112 -0.073223315 -0.049475215 -0.14446762 0.073223315 0.12071952 -0.02770612 0.025727112
-0.13061456 0.0 0.08311836 -0.043538187 0.011874052 -0.047496207 -0.049475215 0.10290845
0.017811077 -0.08311836 -0.059370257 -0.06530728 -0.14842564 -0.035622153 -0.10884547 0.021769093
0.08113935 0.02770612 0.01385306 -0.04155918 -0.106866464 -0.015832068 -0.049475215 -0.06728629
-0.033643145 -0.051454224 0.03760116 0.033643145 0.053433232 0.05541224 -0.033643145 -0.023748104
0.043538187 -0.01385306 0.085097365 0.023748104 0.03760116 -0.0019790085 0.047496207 0.07520232
00000000: f9ca 05fa e1eb 2eeb f7f8 dc42 f9db 14e8
00000010: efd3 10e3 d90a 15f3 3814 01fd f213 f601
00000020: 04e3 0cf6 f412 e922 2f40 421f 3e16 030d
00000030: f809 1c09 f6f8 e2dc f709 e1cc dc1c fdef
00000040: 050b 3a17 f30d f7da 1c0e 1c20 e6f7 1e08
00000050: e8e9 3ae9 ff2a 0dfd bc5a 1427 be11 0910
00000060: f213 1e08 ce01 f6dd fbd7 29da 00fa e107
00000070: 4312 212f 2201 e1f3 50ee 10bc 2814 5316
00000080: fe38 42ea e5c9 0316 0c0d cb0b 1cf7 1af2
00000090: 23e2 c8e2 e63a cc14 10ae 0f3c de0f 17fe
000000a0: 0dcb f11f 1fe9 f8f2 08fb 0910 f9dc 15f5
000000b0: e6e2 0045 df1a 25ed eb02 f4ca 62ea 08fd
000000c0: 1bfa eefe 28e1 df00 fefd 0721 e4f2 baf2
000000d0: 0ddb e7b7 253d f20d be00 2aea 06e8 e734
000000e0: 09d6 e2df b5ee c90b 290e 07eb caf8 e7de
000000f0: efe6 1311 1b1c eff4 16f9 2b0c 13ff 1826

sequential/lstm/while/lstm_cell/MatMul i1 [64, 258] scale=0.0012661313 zero_point=0
-0.053177513 -0.03165328 -0.07343561 0.0202581 -0.09369372 -0.055709776 0.08229853 0.06710496
-0.005064525 -0.003798394 -0.007596788 0.0 -0.06710496 0.05950817 0.07470175 -0.04937912
-0.0848308 -0.04937912 -0.08736306 -0.09369372 0.008862919 -0.0113951815 -0.0848308 0.09116145
0.069637224 0.08609693 0.08862919 0.041782334 0.06583883 -0.008862919 0.06710496 -0.060774304
0.05950817 -0.03798394 -0.024056494 -0.060774304 0.06330656 0.07090335 -0.07596788 -0.07470175
0.021524232 0.07470175 0.008862919 -0.024056494 -0.08609693 0.1050889 -0.05064525 0.10762116
0.116484076 -0.005064525 0.053177513 -0.0113951815 0.032919414 -0.055709776 -0.012661313 0.04937912
0.11901634 -0.029121019 -0.10635503 0.09369372 -0.07470175 0.07976627 -0.035451677 0.116484076
0.11015342 0.04811299 0.09116145 -0.026588757 -0.0025322626 0.07723401 0.003798394 0.13167766
-0.03165328 0.069637224 0.0113951815 -0.04937912 0.015193576 0.0405162 0.07470175 -0.013927444
-0.08862919 -0.04937912 -0.0645727 -0.09495985 -0.034185544 -0.07976627 -0.013927444 -0.022790363
0.029121019 -0.01899197 -0.07343561 0.0645727 0.008862919 -0.04811299 0.025322625 -0.06837109
-0.06710496 -0.08989532 -0.11141955 -0.034185544 -0.07596788 0.013927444 0.029121019 -0.016459707
-0.005064525 -0.0063306564 0.015193576 0.05950817 0.11268569 0.09116145 0.11395182 -0.036717806
-0.01899197 0.08609693 0.030387152 0.032919414 0.05950817 -0.025322625 0.10002437 -0.0063306564
-0.015193576 0.06710496 -0.07723401 -0.035451677 0.05950817 0.035451677 -0.055709776 0.11268569
0.10762116 0.013927444 0.008862919 -0.021524232 0.035451677 0.003798394 -0.041782334 0.1291454
0.12787926 -0.0810324 -0.0113951815 0.11775021 -0.03925007 -0.005064525 -0.069637224 0.027854888
0.005064525 0.01899197 -0.09242758 0.12661313 0.13674217 -0.12028247 -0.0063306564 -0.027854888
-0.07850014 0.012661313 0.07470175 0.025322625 0.13547605 0.017725838 -0.07343561 0.0645727
-0.007596788 0.0113951815 0.08356467 -0.053177513 -0.029121019 0.10382277 -0.069637224 0.07090335
-0.0202581 -0.044314597 -0.03925007 -0.022790363 0.012661313 -0.05697591 0.034185544 0.116484076
0.0645727 -0.054443646 -0.03165328 -0.055709776 0.069637224 0.0810324 -0.10002437 0.07976627
-0.055709776 0.008862919 -0.034185544 -0.06837109 -0.07596788 -0.032919414 -0.07850014 -0.09369372
0.07850014 -0.025322625 0.03925007 -0.07090335 -0.0113951815 0.051911384 0.0405162 -0.062040433
0.055709776 -0.08989532 -0.029121019 -0.01899197 0.01012905 -0.08609693 -0.097492106 -0.013927444
-0.060774304 -0.029121019 -0.08989532 0.0063306564 0.04684686 0.034185544 0.051911384 -0.07596788
-0.03165328 -0.07596788 0.051911384 -0.034185544 -0.09242758 -0.022790363 0.06583883 0.022790363
0.013927444 0.005064525 0.012661313 0.024056494 -0.0012661313 -0.01012905 -0.0012661313 -0.060774304
0.0202581 -0.055709776 0.09495985 0.003798394 -0.03798394 -0.017725838 0.11268569 -0.0405162
-0.021524232 0.026588757 0.0810324 -0.06837109 0.03925007 0.05064525 0.10382277 0.016459707
-0.116484076 0.0202581 0.034185544 -0.027854888 0.021524232 0.07723401 -0.09116145 0.025322625
00000000: d6e7 c610 b6d4 4135 fcfd fa00 cb2f 3bd9
00000010: bdd9 bbb6 07f7 bd48 3744 4621 34f9 35d0
00000020: 2fe2 edd0 3238 c4c5 113b 07ed bc53 d855
00000030: 5cfc 2af7 1ad4 f627 5ee9 ac4a c53f e45c
00000040: 5726 48eb fe3d 0368 e737 09d9 0c20 3bf5
00000050: bad9 cdb5 e5c1 f5ee 17f1 c633 07da 14ca
00000060: cbb9 a8e5 c40b 17f3 fcfb 0c2f 5948 5ae3
00000070: f144 181a 2fec 4ffb f435 c3e4 2f1c d459
00000080: 550b 07ef 1c03 df66 65c0 f75d e1fc c916
00000090: 040f b764 6ca1 fbea c20a 3b14 6b0e c633
000000a0: fa09 42d6 e952 c938 f0dd e1ee 0ad3 1b5c
000000b0: 33d5 e7d4 3740 b13f d407 e5ca c4e6 c2b6
000000c0: 3eec 1fc8 f729 20cf 2cb9 e9f1 08bc b3f5
000000d0: d0e9 b905 251b 29c4 e7c4 29e5 b7ee 3412
000000e0: 0b04 0a13 fff8 ffd0 10d4 4b03 e2f2 59e0
000000f0: ef15 40ca 1f28 520d a410 1bea 113d b814

sequential/lstm/while/lstm_cell/MatMul_1 i1 [64, 258] scale=0.0015074728 zero_point=0
-0.04673166 0.054269023 0.11155299 0.07085122 -0.08743343 0.022612093 0.11607541 -0.084418476
0.019597147 0.06482133 0.084418476 -0.030149456 0.039194293 -0.0165822 -0.045224186 -0.11155299
-0.013567256 -0.09044837 0.07989606 -0.010552309 -0.11155299 -0.043716714 -0.021104619 0.08743343
0.08291101 0.055776495 0.1221053 -0.110045515 -0.013567256 -0.0165822 0.055776495 -0.08140353
-0.03617935 -0.114567935 0.019597147 -0.010552309 0.0045224186 -0.061806384 0.024119565 -0.034671877
0.007537364 0.042209238 -0.08592595 -0.11607541 0.043716714 0.05879144 -0.015074728 0.021104619
-0.0723587 0.015074728 -0.030149456 -0.119090356 0.06783628 -0.06783628 -0.08291101 -0.06783628
-0.034671877 -0.010552309 0.07688111 0.0060298913 0.049746603 0.0331644 -0.055776495 -0.028641984
0.08140353 0.025627038 -0.049746603 0.05879144 0.03617935 -0.10703057 -0.018089674 0.0331644
-0.073866166 0.030149456 0.06482133 -0.0165822 -0.094970785 0.027134512 -0.027134512 -0.018089674
0.08140353 0.09647826 -0.052761547 -0.015074728 0.060298912 -0.0663288 0.010552309 -0.045224186
0.094970785 -0.018089674 0.08743343 -0.025627038 0.019597147 0.043716714 0.034671877 -0.021104619
-0.088940896 0.0045224186 -0.043716714 -0.09798574 -0.120597824 -0.10250815 0.08743343 -0.043716714
0.06331386 0.07688111 0.0663288 -0.049746603 -0.09346332 -0.07989606 -0.018089674 -0.0723587
0.09044837 0.06934375 -0.10100068 0.057283968 -0.088940896 -0.03768682 -0.061806384 0.0
0.0030149457 -0.052761547 -0.024119565 -0.010552309 0.024119565 0.04823913 0.09798574 -0.03617935
-0.09647826 -0.06934375 -0.099493206 0.120597824 0.052761547 0.1221053 0.052761547 0.11155299
0.027134512 0.09647826 0.0 0.060298912 -0.07989606 0.114567935 0.13115014 -0.07838859
0.09044837 0.04673166 0.0015074728 -0.028641984 0.03165693 -0.11758288 0.07838859 0.007537364
0.04823913 0.07989606 0.08140353 0.018089674 0.110045515 -0.06331386 -0.0165822 -0.07085122
-0.018089674 -0.030149456 -0.05879144 0.0 -0.010552309 -0.07085122 0.0015074728 -0.073866166
0.07989606 -0.06331386 0.034671877 0.11758288 0.12662771 -0.12361277 -0.045224186 0.09647826
-0.051254075 -0.042209238 0.0663288 -0.0723587 -0.028641984 0.11607541 -0.09647826 -0.0030149457
0.022612093 -0.028641984 -0.07537364 0.05879144 0.0723587 -0.0331644 0.13115014 0.012059783
0.10250815 -0.054269023 0.025627038 -0.10100068 0.013567256 0.104015626 -0.015074728 0.061806384
0.009044837 0.088940896 -0.11155299 -0.04673166 -0.08592595 -0.028641984 -0.08291101 -0.045224186
0.0331644 -0.05879144 0.054269023 0.08140353 -0.03768682 0.0 0.03768682 -0.010552309
-0.061806384 0.09647826 -0.049746603 0.0060298913 -0.0165822 -0.12662771 -0.094970785 -0.09647826
-0.055776495 -0.019597147 -0.022612093 0.0663288 -0.03768682 -0.0015074728 0.018089674 -0.0015074728
0.022612093 -0.0723587 0.060298912 0.07085122 -0.015074728 -0.03165693 -0.025627038 -0.0015074728
0.06482133 -0.03165693 -0.09346332 0.0060298913 0.045224186 -0.07537364 0.06331386 -0.043716714
-0.08291101 -0.084418476 0.028641984 -0.0015074728 -0.05879144 -0.0165822 0.088940896 -0.10853805
00000000: e124 4a2f c60f 4dc8 0d2b 38ec 1af5 e2b6
00000010: f7c4 35f9 b6e3 f23a 3725 51b7 f7f5 25ca
00000020: e8b4 0df9 03d7 10e9 051c c7b3 1d27 f60e
00000030: d00a ecb1 2dd3 c9d3 e9f9 3304 2116 dbed
00000040: 3611 df27 18b9 f416 cf14 2bf5 c112 eef4
00000050: 3640 ddf6 28d4 07e2 3ff4 3aef 0d1d 17f2
00000060: c503 e3bf b0bc 3ae3 2a33 2cdf c2cb f4d0
00000070: 3c2e bd26 c5e7 d700 02dd f0f9 1020 41e8
00000080: c0d2 be50 2351 234a 1240 0028 cb4c 57cc
00000090: 3c1f 01ed 15b2 3405 2035 360c 49d6 f5d1
000000a0: f4ec d900 f9d1 01cf 35d6 174e 54ae e240
000000b0: dee4 2cd0 ed4d c0fe 0fed ce27 30ea 5708
000000c0: 44dc 11bd 0945 f629 063b b6e1 c7ed c9e2
000000d0: 16d9 2436 e700 19f9 d740 df04 f5ac c1c0
000000e0: dbf3 f12c e7ff 0cff 0fd0 282f f6eb efff
000000f0: 2beb c204 1ece 2ae3 c9c8 13ff d9f5 3bb8

sequential/lstm/while/lstm_cell/MatMul_2 i1 [64, 258] scale=0.0014700652 zero_point=0
-0.113195024 -0.09555424 0.038221695 -0.09114404 -0.11025489 0.06468287 -0.008820391 -0.048512153
-0.032341436 -0.035281565 0.0338115 -0.060272675 -0.03969176 0.017640783 0.11613515 -0.06909306
-0.06615294 -0.05586248 0.11466508 0.08673385 -0.05586248 -0.09555424 0.0014700652 0.07497332
0.008820391 -0.10731476 0.08085359 0.011760522 -0.03969176 -0.11613515 0.11613515 0.09408417
0.05880261 -0.102904566 0.016170718 -0.048512153 -0.06468287 0.022050979 -0.0029401304 -0.0720332
0.06909306 0.016170718 -0.02793124 -0.0014700652 -0.032341436 0.022050979 -0.054392412 0.05733254
0.044101957 0.04263189 0.014700652 -0.09555424 -0.048512153 0.09261411 -0.029401304 -0.063212804
0.077913456 0.016170718 0.041161828 -0.051452283 -0.024991108 -0.08673385 0.049982216 0.11907528
0.0029401304 0.041161828 0.032341436 -0.067623 0.08085359 -0.05586248 0.11025489 -0.024991108
0.0044101956 0.023521043 -0.011760522 -0.014700652 0.038221695 -0.113195024 -0.08967398 0.06909306
-0.05586248 -0.102904566 0.07497332 0.08673385 -0.067623 0.03969176 0.022050979 0.03969176
-0.029401304 -0.054392412 0.05880261 -0.12054535 -0.11025489 0.05586248 0.11760522 -0.016170718
-0.10437463 0.041161828 -0.035281565 0.008820391 -0.0338115 -0.05733254 -0.022050979 -0.0029401304
0.0 -0.051452283 -0.08085359 0.07350326 -0.09996443 0.044101957 0.007350326 -0.06909306
-0.060272675 0.04557202 -0.067623 0.12054535 -0.03969176 0.08673385 -0.11172496 0.09261411
0.007350326 0.06615294 -0.060272675 -0.05586248 0.03969176 -0.05733254 -0.077913456 0.023521043
-0.113195024 -0.03969176 0.06468287 -0.014700652 -0.060272675 0.09261411 -0.03675163 0.12936574
0.11466508 0.11613515 0.05733254 -0.051452283 -0.007350326 0.12789567 0.09261411 0.05733254
0.04263189 -0.017640783 0.09555424 -0.0338115 0.05733254 0.020580914 0.02793124 0.10437463
-0.08673385 0.08085359 -0.007350326 -0.04557202 0.09555424 0.1014345 0.029401304 0.023521043
-0.008820391 -0.035281565 0.054392412 0.07497332 -0.11907528 -0.0014700652 0.12495554 0.07350326
0.05733254 0.04557202 -0.12789567 0.011760522 -0.03675163 -0.07056313 0.023521043 0.102904566
-0.044101957 -0.04263189 0.08673385 0.011760522 0.12201541 0.030871369 -0.04263189 -0.0044101956
0.088203914 -0.029401304 -0.013230586 0.08085359 -0.019110847 -0.026461173 0.041161828 -0.035281565
-0.051452283 0.0338115 -0.010290457 0.013230586 -0.09555424 0.0720332 -0.098494366 -0.049982216
-0.0044101956 0.047042087 0.0720332 0.07056313 0.09555424 0.029401304 -0.10584469 0.054392412
-0.054392412 0.063212804 0.05880261 0.044101957 -0.06909306 -0.0044101956 0.0044101956 -0.10584469
-0.09408417 0.019110847 0.067623 0.007350326 -0.016170718 0.04557202 -0.0720332 -0.041161828
-0.13377593 0.0014700652 -0.016170718 0.008820391 0.060272675 -0.067623 -0.063212804 0.09555424
-0.08673385 -0.030871369 0.1014345 0.09555424 0.0338115 -0.083793715 -0.09261411 -0.051452283
0.0029401304 0.022050979 -0.014700652 0.041161828 0.09261411 -0.09408417 -0.082323655 -0.049982216
-0.060272675 0.07644339 0.0029401304 -0.08967398 -0.082323655 -0.11466508 -0.038221695 -0.029401304
00000000: b3bf 1ac2 b52c fadf eae8 17d7 e50c 4fd1
00000010: d3da 4e3b dabf 0133 06b7 3708 e5b1 4f40
00000020: 28ba 0bdf d40f fecf 2f0b edff ea0f db27
00000030: 1e1d 0abf df3f ecd5 350b 1cdd efc5 2251
00000040: 021c 16d2 37da 4bef 0310 f8f6 1ab3 c32f
00000050: daba 333b d21b 0f1b ecdb 28ae b526 50f5
00000060: b91c e806 e9d9 f1fe 00dd c932 bc1e 05d1
00000070: d71f d252 e53b b43f 052d d7da 1bd9 cb10
00000080: b3e5 2cf6 d73f e758 4e4f 27dd fb57 3f27
00000090: 1df4 41e9 270e 1347 c537 fbe1 4145 1410
000000a0: fae8 2533 afff 5532 271f a908 e7d0 1046
000000b0: e2e3 3b08 5315 e3fd 3cec f737 f3ee 1ce8
000000c0: dd17 f909 bf31 bdde fd20 3130 4114 b825
000000d0: db2b 281e d1fd 03b8 c00d 2e05 f51f cfe4
000000e0: a501 f506 29d2 d541 c5eb 4541 17c7 c1dd
000000f0: 020f f61c 3fc0 c8de d734 02c3 c8b2 e6ec

sequential/lstm/while/lstm_cell/MatMul_3 i1 [64, 258] scale=0.0014992116 zero_point=0
-0.07795901 0.095949546 0.06896374 0.09894797 -0.07496058 0.010494482 0.09295112 0.076459795
0.06746452 0.023987386 0.061467677 0.061467677 0.10494482 -0.10194639 0.09145191 0.08245664
0.02698581 -0.07046295 0.07196216 0.059968464 -0.10194639 0.05397162 0.083955854 0.025486598
-0.058469255 0.10944245 -0.038979504 -0.05247241 0.02698581 -0.05247241 -0.058469255 0.07346137
0.09145191 0.020988964 0.06296689 0.10644402 0.04647556 -0.05247241 0.07196216 -0.07196216
0.020988964 -0.010494482 0.0014992116 0.07346137 0.038979504 0.03748029 0.019489752 -0.05697004
0.09145191 0.061467677 0.0 -0.103445604 0.10944245 -0.10044718 -0.11094166 0.079458214
0.058469255 0.083955854 0.032982655 -0.09744876 0.019489752 0.06596531 0.06746452 -0.06896374
-0.05697004 0.050973196 0.06596531 -0.10044718 0.010494482 -0.05547083 0.043477137 0.07795901
-0.10194639 -0.10194639 0.007496058 -0.06596531 0.02698581 -0.050973196 -0.09145191 0.061467677
0.04497635 -0.019489752 -0.019489752 0.07046295 -0.049473986 -0.01799054 0.00899527 0.095949546
0.0059968466 0.09145191 -0.025486598 0.10044718 0.09295112 -0.083955854 0.058469255 -0.095949546
0.01799054 0.02698581 0.020988964 -0.010494482 -0.041977927 -0.041977927 -0.05547083 0.079458214
-0.0029984233 0.0899527 -0.08545507 -0.04497635 -0.05547083 0.0899527 0.023987386 -0.061467677
-0.095949546 -0.01799054 0.08845349 0.06596531 -0.06746452 0.095949546 0.02848502 0.08095743
-0.10644402 -0.07196216 0.029984232 0.07496058 0.10944245 -0.10194639 -0.043477137 -0.08095743
-0.08845349 0.02698581 0.029984232 -0.03448187 -0.0029984233 0.079458214 0.05397162 -0.03448187
0.061467677 -0.047974773 0.09145191 -0.06896374 -0.03448187 0.076459795 0.020988964 0.07196216
-0.010494482 -0.079458214 0.0029984233 0.09295112 -0.0014992116 0.011993693 -0.029984232 0.103445604
0.02698581 0.083955854 0.08695427 -0.010494482 0.064466104 -0.029984232 -0.05697004 0.043477137
-0.00899527 -0.09295112 -0.04497635 0.019489752 -0.02698581 -0.0059968466 -0.025486598 0.064466104
0.08245664 0.13193062 -0.09145191 0.12443457 0.019489752 0.023987386 0.13342984 -0.03448187
-0.12593378 0.040478714 0.12593378 0.040478714 0.11993693 0.13492905 0.040478714 0.079458214
0.13492905 -0.01799054 0.12143614 -0.043477137 -0.010494482 -0.03598108 -0.047974773 -0.076459795
-0.019489752 0.04497635 -0.0899527 -0.01799054 0.076459795 -0.019489752 -0.07346137 0.061467677
-0.01799054 0.06896374 -0.09744876 -0.03598108 -0.049473986 -0.076459795 0.04497635 -0.09744876
-0.059968464 -0.05247241 0.09894797 -0.076459795 0.0059968466 0.031483445 0.09295112 -0.05697004
0.041977927 -0.083955854 -0.06596531 -0.08245664 -0.06296689 0.040478714 0.05247241 -0.040478714
-0.04647556 0.06296689 0.07196216 0.004497635 0.010494482 0.020988964 -0.05247241 0.016491327
0.09145191 0.038979504 0.047974773 -0.02848502 -0.13342984 0.02698581 -0.09145191 -0.004497635
-0.08695427 -0.09445033 -0.11843772 0.03748029 0.029984232 0.02848502 -0.061467677 0.010494482
0.013492905 0.08845349 -0.02848502 0.04497635 -0.07196216 -0.05247241 0.07196216 -0.007496058
00000000: cc40 2e42 ce07 3e33 2d10 2929 46bc 3d37
00000010: 12d1 3028 bc24 3811 d949 e6dd 12dd d931
00000020: 3d0e 2a47 1fdd 30d0 0ef9 0131 1a19 0dda
00000030: 3d29 00bb 49bd b635 2738 16bf 0d2c 2dd2
00000040: da22 2cbd 07db 1d34 bcbc 05d4 12de c329
00000050: 1ef3 f32f dff4 0640 043d ef43 3ec8 27c0
00000060: 0c12 0ef9 e4e4 db35 fe3c c7e2 db3c 10d7
00000070: c0f4 3b2c d340 1336 b9d0 1432 49bc e3ca
00000080: c512 14e9 fe35 24e9 29e0 3dd2 e933 0e30
00000090: f9cb 023e ff08 ec45 1238 3af9 2bec da1d
000000a0: fac2 e20d eefc ef2b 3758 c353 0d10 59e9
000000b0: ac1b 541b 505a 1b35 5af4 51e3 f9e8 e0cd
000000c0: f31e c4f4 33f3 cf29 f42e bfe8 dfcd 1ebf
000000d0: d8dd 42cd 0415 3eda 1cc8 d4c9 d61b 23e5
000000e0: e12a 3003 070e dd0b 3d1a 20ed a712 c3fd
000000f0: c6c1 b119 1413 d707 093b ed1e d0dd 30fb
