app/src/main/assets/hello.tflite (tflite, 245152 bytes, 42 tensors)

sequential/dense_2/MatMul f4 [2, 32]
000000 75 b8 37 3e fe 6c 3f bd c6 23 ac 3e da 77 87 be
       0.17941459 -0.046734802 0.33621043 -0.26458627
000010 20 52 c4 bd b7 fe c6 3e 00 d7 76 be 09 64 81 3e
       -0.095859766 0.38866207 -0.24105453 0.25271633
000020 64 b1 95 be 1a b4 20 be a8 a0 8e be 52 e3 78 be
       -0.292369 -0.15693703 -0.27856946 -0.24305466
000030 29 5c 65 3e 54 e1 9a 3e cb ae 9c be cd 4e c0 3e
       0.22398438 0.30250037 -0.30602106 0.3756012
000040 a3 a2 10 be 54 a2 58 3e dc 11 b4 3d 36 55 d2 be
       -0.14124541 0.21155673 0.08792469 -0.41080636
000050 9e 9f a6 3e 1c a9 b9 be 33 8e b8 3e 6d 34 5d be
       0.32543653 -0.36261833 0.3604599 -0.2160203
000060 bf 83 68 bd f7 34 88 3d c0 05 8c be 9a 70 bb 3e
       -0.056766268 0.06650727 -0.27348137 0.36609346
000070 82 50 12 3e 5a 76 b1 bd 1d 1e c6 3e 6c d3 b3 be
       0.14288524 -0.08665152 0.3869485 -0.3512224
000080 e4 fe 89 3e 47 8b 41 be 6d 8e 4e be 33 0c b7 3e
       0.2695228 -0.18900786 -0.20171519 0.35751495
000090 60 99 47 3c c9 77 a0 3d f8 21 1a bd 72 83 12 ba
       0.012182564 0.07835347 -0.03763005 -0.0005589045
0000a0 5a 6f ad 3e 62 b5 89 be a6 24 2e 3e 9b 3c 48 be
       0.33874017 -0.26896197 0.17006168 -0.19554369
0000b0 85 78 db 3e e6 d9 10 3d 48 0d a4 be fd 43 9c 3e
       0.42865387 0.035364054 -0.32041383 0.3052062
0000c0 34 98 8f be 26 dd 86 be 92 5d aa be c4 e9 26 3e
       -0.2804581 -0.26340598 -0.33274513 0.16300112
0000d0 1e f1 08 3e 1d 94 04 bc 00 5f bb 3d 9a ed 3b be
       0.13373229 -0.008091954 0.09148979 -0.18352357
0000e0 b6 e4 be bd 9b 7d 86 bd 86 7b aa bc ee cd ac be
       -0.09320967 -0.06566926 -0.020810854 -0.33750862
0000f0 a5 e9 cf be b0 60 73 be 18 5c 97 be df 4c 66 3e
       -0.40607944 -0.23767352 -0.2956245 0.22490261

sequential/dense/BiasAdd/ReadVariableOp f4 [64]
000000 b8 79 c6 3c 50 99 1c 3c eb 57 bb bb 86 12 cb 3c
       0.024227962 0.009558037 -0.0057172677 0.024789106
000010 fc a5 d5 3c a9 d0 65 bc 5a 41 cf bc 4c 2c 5a 3c
       0.026080124 -0.014026799 -0.025299717 0.013316225
000020 a2 54 6e 3c fa 30 83 3b 9b a2 6a 3c 1b db 42 bb
       0.014546545 0.004003641 0.014320995 -0.0029732648
000030 45 02 1c 3d 46 35 63 3c a4 76 e6 3c 91 db 24 3c
       0.038088102 0.013867682 0.028132744 0.010062114
000040 b4 88 6a 3b 30 86 8a bc 88 96 12 3c d3 df 33 3c
       0.0035787048 -0.016909689 0.008947022 0.010978657
000050 d2 ff bd bb 26 f7 51 3b 55 f3 f3 bc 5b b3 7d bc
       -0.0057983184 0.003203818 -0.029779116 -0.015484656
000060 66 f8 e2 3c 50 ca 0a bc 8e 8c 36 3c d7 60 d3 bc
       0.027706336 -0.008471087 0.011141909 -0.025803013
000070 bd 9c 06 3d 7d ef d8 bc 22 ec 06 bd 9e ba fe 3c
       0.03286432 -0.026481384 -0.032940038 0.031094845
000080 13 6f cc bc 0a fc 1b 3d 01 94 27 bc 33 7c 21 3d
       -0.024955308 0.03808216 -0.010228158 0.039425086
000090 9b 22 39 3c 2f 54 85 bc 59 2b e3 3c fd 5d 87 3c
       0.0112997545 -0.016275493 0.02773063 0.01652431
0000a0 a8 ec ea bb fe 9f 86 bb 04 de 31 3d 7c 92 1f 3d
       -0.007169325 -0.004108428 0.04342462 0.038958058
0000b0 73 50 14 bc b0 72 9a bc 9a b4 07 bd 7e 7a 64 3c
       -0.009052384 -0.018853515 -0.03313122 0.01394522
0000c0 de ce 9c 3c a1 ba 57 bc ab 42 d1 3b c5 4e b2 bb
       0.01914161 -0.013167054 0.0063861213 -0.005441519
0000d0 97 35 c1 bb b2 da 14 3d 38 01 0e bc 30 80 8d 3b
       -0.005896281 0.036341377 -0.008667283 0.0043182597
0000e0 c4 ef 1c 3d 6c bc 25 3d 84 c8 16 3d ce bb 31 3b
       0.038314596 0.040462896 0.03681232 0.0027119997
0000f0 d4 58 fa 3c 85 8d dc 3c 97 6a d6 bb 01 7f 0c 3c
       0.030559935 0.02692295 -0.006543468 0.008575202

sequential/dense_2/BiasAdd/ReadVariableOp f4 [2]
000000 61 a0 b1 bb 63 a0 b1 3b
       -0.00542073 0.005420731

sequential/dense_1/BiasAdd/ReadVariableOp f4 [32]
000000 2a 43 88 3b bc a8 8e ba d2 7e bc 3b 00 00 00 00
       0.004158397 -0.0010884027 0.005752423 0.0
000010 00 00 00 00 40 15 3d 3c e2 8f 41 bc a4 cc dd 3c
       0.0 0.011540711 -0.0118140895 0.02707512
000020 9a 1a 00 bc 96 c3 17 bd 43 f1 72 3b 86 e3 fb bb
       -0.007818842 -0.03705176 0.0037070073 -0.007687035
000030 d4 e0 74 3c ae b6 d8 3c f1 d0 1c 3c 00 00 00 00
       0.014946181 0.026454296 0.0095713 0.0
000040 90 92 f4 3c 7b 30 ae bb bd db 29 ab a9 19 4f 3c
       0.029855043 -0.005315838 -6.034581e-13 0.012640395
000050 07 4d eb bb 9d 30 7d 3c 3f 8c 9d 3b 89 80 05 3c
       -0.0071808132 0.015453485 0.0048079784 0.008148321
000060 86 72 e3 3b 42 a3 7a bc 3b c0 b4 bc db 1a c2 3c
       0.0069411425 -0.015297713 -0.022064319 0.023694446
000070 13 75 8f 1b 04 34 f7 3c a7 26 c2 3b 10 8d ee bb
       2.3733023e-22 0.03017617 0.005925018 -0.0072799996

sequential/dense/MatMul i1 [64, 64] scale=0.0021784334 zero_point=0
000000 22 06 44 1a 3a e9 d2 24 41 2f 58 28 ee 5c c0 0a
       0.074066736 0.0130706 0.14813347 0.05663927 0.12634914 -0.050103966 -0.10020793 0.078423604 0.14159817 0.10238637 0.19170213 0.087137334 -0.039211802 0.20041586 -0.13941973 0.021784334
000010 fb fe 37 ec d5 1a eb 1c 23 0f 46 fe c7 fe 60 09
       -0.010892167 -0.0043568667 0.11981384 -0.043568667 -0.09367263 0.05663927 -0.0457471 0.060996134 0.07624517 0.0326765 0.15249033 -0.0043568667 -0.1241707 -0.0043568667 0.2091296 0.019605901
000020 03 0b 41 4a c7 d0 f5 19 61 49 eb 53 e3 dd 62 04
       0.0065353 0.023962766 0.14159817 0.16120407 -0.1241707 -0.1045648 -0.023962766 0.054460835 0.21130803 0.15902564 -0.0457471 0.18080997 -0.06317457 -0.07624517 0.21348646 0.008713733
000030 bb df 72 ea b6 42 34 59 52 63 24 e2 38 41 61 de
       -0.1503119 -0.0718883 0.2483414 -0.047925532 -0.16120407 0.1437766 0.11327854 0.19388057 0.17863153 0.21566491 0.078423604 -0.065353 0.12199227 0.14159817 0.21130803 -0.074066736
000040 c4 08 50 26 4e 37 33 c6 13 cd f7 04 db c4 37 eb
       -0.130706 0.017427467 0.17427467 0.082780465 0.1699178 0.11981384 0.1111001 -0.12634914 0.041390233 -0.1111001 -0.019605901 0.008713733 -0.080602035 -0.130706 0.11981384 -0.0457471
000050 a8 29 57 2b 5b ab 4a 18 3d b1 35 2f ee fc 22 5a
       -0.19170213 0.089315765 0.1895237 0.09367263 0.19823743 -0.18516684 0.16120407 0.0522824 0.13288443 -0.17209624 0.11545697 0.10238637 -0.039211802 -0.008713733 0.074066736 0.196059
000060 c3 44 c6 ac 20 17 a0 6a 43 40 1b de 0b c2 59 b4
       -0.13288443 0.14813347 -0.12634914 -0.1829884 0.06970987 0.050103966 -0.2091296 0.23091394 0.14595504 0.13941973 0.0588177 -0.074066736 0.023962766 -0.13506287 0.19388057 -0.16556093
000070 04 0c ca aa 59 25 08 2b b6 b0 4d b8 1d 1c b8 ad
       0.008713733 0.0261412 -0.1176354 -0.18734527 0.19388057 0.080602035 0.017427467 0.09367263 -0.16120407 -0.17427467 0.16773936 -0.15684721 0.06317457 0.060996134 -0.15684721 -0.18080997
000080 b6 11 21 a2 2f aa 20 47 c5 b5 d5 2e ef 3b d6 4d
       -0.16120407 0.037033368 0.0718883 -0.20477274 0.10238637 -0.18734527 0.06970987 0.15466876 -0.12852757 -0.1633825 -0.09367263 0.10020793 -0.037033368 0.12852757 -0.0914942 0.16773936
000090 33 07 ee 14 44 47 f1 54 a2 aa df f7 a0 50 d8 b5
       0.1111001 0.015249033 -0.039211802 0.043568667 0.14813347 0.15466876 -0.0326765 0.1829884 -0.20477274 -0.18734527 -0.0718883 -0.019605901 -0.2091296 0.17427467 -0.087137334 -0.1633825
0000a0 e3 5a 0a b4 a4 b6 ec 60 37 fb de d4 37 c4 1d 1e
       -0.06317457 0.196059 0.021784334 -0.16556093 -0.20041586 -0.16120407 -0.043568667 0.2091296 0.11981384 -0.010892167 -0.074066736 -0.095851064 0.11981384 -0.130706 0.06317457 0.065353
0000b0 27 a1 03 9e 05 49 c6 b2 ec ba af 17 2f 03 ad aa
       0.0849589 -0.20695117 0.0065353 -0.21348646 0.010892167 0.15902564 -0.12634914 -0.1699178 -0.043568667 -0.15249033 -0.1764531 0.050103966 0.10238637 0.0065353 -0.18080997 -0.18734527
0000c0 39 43 22 ae b6 60 bc b5 22 df ac ca e1 a6 07 36
       0.1241707 0.14595504 0.074066736 -0.17863153 -0.16120407 0.2091296 -0.14813347 -0.1633825 0.074066736 -0.0718883 -0.1829884 -0.1176354 -0.06753144 -0.196059 0.015249033 0.1176354
0000d0 3b 47 eb e2 a3 21 42 06 f9 0d 36 c6 f5 3b 40 55
       0.12852757 0.15466876 -0.0457471 -0.065353 -0.2025943 0.0718883 0.1437766 0.0130706 -0.015249033 0.028319634 0.1176354 -0.12634914 -0.023962766 0.12852757 0.13941973 0.18516684
0000e0 c5 9e 50 1e a3 c9 a7 3a 18 4a ae 36 13 4d fa 33
       -0.12852757 -0.21348646 0.17427467 0.065353 -0.2025943 -0.11981384 -0.19388057 0.12634914 0.0522824 0.16120407 -0.17863153 0.1176354 0.041390233 0.16773936 -0.0130706 0.1111001
0000f0 4c 00 ba e0 db 08 65 c2 c9 de 3f b5 bd 75 c6 18
       0.16556093 0.0 -0.15249033 -0.06970987 -0.080602035 0.017427467 0.22002177 -0.13506287 -0.11981384 -0.074066736 0.1372413 -0.1633825 -0.14595504 0.2548767 -0.12634914 0.0522824

sequential/dense_1/MatMul i1 [32, 64] scale=0.00224131 zero_point=0
000000 36 47 48 ae 12 1d 43 eb c0 1e 6f 47 44 bb 49 73
       0.12103074 0.159133 0.16137432 -0.18378742 0.04034358 0.064997986 0.15016776 -0.047067508 -0.14344384 0.0672393 0.2487854 0.159133 0.15240908 -0.15465039 0.16361563 0.25775066
000010 d5 65 f1 5b a0 dc 49 cb e9 65 da 52 97 3f fc 6d
       -0.09637633 0.2263723 -0.03361965 0.20395921 -0.21516576 -0.08068716 0.16361563 -0.11878943 -0.051550128 0.2263723 -0.08516978 0.18378742 -0.23533754 0.14120252 -0.00896524 0.24430278
000020 b2 56 cb bf 2c c1 fd 1f 37 4e c3 58 cd 0e f1 ee
       -0.17482218 0.19275266 -0.11878943 -0.14568515 0.098617636 -0.14120252 -0.00672393 0.069480605 0.12327205 0.17482218 -0.13671991 0.19723527 -0.11430681 0.03137834 -0.03361965 -0.04034358
000030 1a 62 c5 52 b5 26 47 c2 e5 ad 21 d2 cc fa fe 7a
       0.05827406 0.21964838 -0.13223729 0.18378742 -0.16809824 0.08516978 0.159133 -0.13896121 -0.06051537 -0.18602873 0.07396323 -0.103100255 -0.11654812 -0.01344786 -0.00448262 0.27343982
000040 f1 65 2e 55 0f 42 13 1a e8 16 05 c5 0d 30 32 99
       -0.03361965 0.2263723 0.103100255 0.19051135 0.03361965 0.14792646 0.04258489 0.05827406 -0.05379144 0.049308818 0.01120655 -0.13223729 0.02913703 0.10758288 0.1120655 -0.23085493
000050 dd d8 cc 35 b1 58 48 2f eb 8d 3b 2f 5c 9a 40 16
       -0.07844585 -0.0896524 -0.11654812 0.11878943 -0.17706348 0.19723527 0.16137432 0.10534157 -0.047067508 -0.25775066 0.13223729 0.10534157 0.20620051 -0.22861362 0.14344384 0.049308818
000060 6f a4 36 5c 24 2b 0c 20 3d d0 5b d5 ee 0a 1c f9
       0.2487854 -0.20620051 0.12103074 0.20620051 0.08068716 0.09637633 0.02689572 0.07172192 0.13671991 -0.10758288 0.20395921 -0.09637633 -0.04034358 0.0224131 0.06275668 -0.01568917
000070 f7 b6 06 cd ee b0 11 d5 08 d9 50 64 03 ea b9 9c
       -0.02017179 -0.16585694 0.01344786 -0.11430681 -0.04034358 -0.1793048 0.03810227 -0.09637633 0.01793048 -0.08741109 0.1793048 0.224131 0.00672393 -0.049308818 -0.159133 -0.224131
000080 97 2b ce 47 d7 55 43 1a fe ed db 2b f4 46 41 f2
       -0.23533754 0.09637633 -0.1120655 0.159133 -0.09189371 0.19051135 0.15016776 0.05827406 -0.00448262 -0.04258489 -0.08292847 0.09637633 -0.02689572 0.1568917 0.14568515 -0.03137834
000090 ed 1f 50 a9 a5 d8 d5 20 b1 c5 bb e6 e8 50 e5 5f
       -0.04258489 0.069480605 0.1793048 -0.19499397 -0.20395921 -0.0896524 -0.09637633 0.07172192 -0.17706348 -0.13223729 -0.15465039 -0.05827406 -0.05379144 0.1793048 -0.06051537 0.21292445
0000a0 4b bd fa 24 f2 0f ba 50 d1 fd 1f 6b 52 a8 f2 b0
       0.16809824 -0.15016776 -0.01344786 0.08068716 -0.03137834 0.03361965 -0.1568917 0.1793048 -0.10534157 -0.00672393 0.069480605 0.23982017 0.18378742 -0.19723527 -0.03137834 -0.1793048
0000b0 42 31 c5 17 b0 c5 b9 cf 66 ca 6d bf b3 68 bc f7
       0.14792646 0.10982419 -0.13223729 0.051550128 -0.1793048 -0.13223729 -0.159133 -0.10982419 0.22861362 -0.12103074 0.24430278 -0.14568515 -0.17258087 0.23309624 -0.15240908 -0.02017179
0000c0 b7 cc 54 f8 44 fb 33 0a 5d f4 04 97 d2 1b a2 b4
       -0.16361563 -0.11654812 0.18827003 -0.01793048 0.15240908 -0.01120655 0.11430681 0.0224131 0.20844182 -0.02689572 0.00896524 -0.23533754 -0.103100255 0.06051537 -0.21068314 -0.17033955
0000d0 af fb bd 31 9d 13 e6 aa bb da a8 48 0d c2 2e ab
       -0.1815461 -0.01120655 -0.15016776 0.10982419 -0.22188969 0.04258489 -0.05827406 -0.19275266 -0.15465039 -0.08516978 -0.19723527 0.16137432 0.02913703 -0.13896121 0.103100255 -0.19051135
0000e0 aa 4e 9e 0a 98 bd b2 db a9 94 c0 50 47 a2 12 f5
       -0.19275266 0.17482218 -0.21964838 0.0224131 -0.23309624 -0.15016776 -0.17482218 -0.08292847 -0.19499397 -0.24206148 -0.14344384 0.1793048 0.159133 -0.21068314 0.04034358 -0.024654409
0000f0 00 31 ab e5 60 b5 03 f4 a2 15 46 01 9e b3 1a 43
       0.0 0.10982419 -0.19051135 -0.06051537 0.21516576 -0.16809824 0.00672393 -0.02689572 -0.21068314 0.047067508 0.1568917 0.00224131 -0.21964838 -0.17258087 0.05827406 0.15016776

sequential/lstm/while/lstm_cell/split_1 f4 [64]
000000 e4 b5 66 bb e3 7f d3 bb 53 a2 db 3b 0e 08 ee bb
       -0.003520363 -0.0064544543 0.0067027 -0.007264144
000010 b8 4c 53 bc e2 a1 5d bc f4 da e7 3b c3 00 11 3c
       -0.012896709 -0.013527365 0.007075662 0.008850279
000020 5a 47 2c 3c 1a 29 eb bb d4 e5 c4 ba 1b 1b 8d 39
       0.010515058 -0.0071765305 -0.0015022107 0.0002691381
000030 50 40 51 bc 8c 33 ef 3b 84 06 3e 3d 1b 11 44 bb
       -0.012771681 0.007299846 0.046392933 -0.0029917422
000040 f2 18 af 3b 0f d6 d3 bb 1f 1e 7e ba 2e 03 98 bb
       0.00534355 -0.0064647268 -0.00096938194 -0.004639051
000050 a6 d1 b1 ba a1 c7 11 bc a3 a6 01 bc 5c dc 65 3d
       -0.0013566508 -0.008897693 -0.007913264 0.056118354
000060 c6 24 ac 3a 56 9a a7 3b ab ec aa bb f7 c5 ab bb
       0.0013133518 0.005114834 -0.0052162013 -0.005242105
000070 bb 9e 00 bc 41 d4 ae 3b 7f 81 2e bc c2 34 56 3a
       -0.007850344 0.005335361 -0.010650991 0.00081713137
000080 b8 8c 1f 3c b4 35 2e bb d5 36 85 bb 7b fe 04 bb
       0.00973814 -0.0026582303 -0.0040653744 -0.0020293284
000090 fc bd 85 bb cd 68 c9 bb 3c e3 a6 ba 71 2f 33 bb
       -0.004081486 -0.0061465264 -0.0012732516 -0.002734151
0000a0 45 4a f8 bb bf 30 3f bc 90 cf ed bb b0 f0 1d 3b
       -0.007577213 -0.011669337 -0.0072574094 0.002409976
0000b0 5e f1 0c bb c7 2f 61 bb b2 74 56 ba 26 36 eb 3a
       -0.002150617 -0.0034360753 -0.0008180841 0.0017945215
0000c0 b9 aa fc bb 76 71 44 bb 20 2a cd 3b 90 5c 21 3c
       -0.0077107814 -0.0029974855 0.006261125 0.009848729
0000d0 00 00 00 00 73 48 40 ba 53 90 08 3c 90 bf a7 3b
       0.0 -0.00073350145 0.008335191 0.0051192716
0000e0 8f af a6 bb 2e 14 85 3b 3e 13 b8 3b b3 7e 54 b9
       -0.005086846 0.0040612435 0.005617528 -0.00020265095
0000f0 09 7f 3b bc f1 dd 39 3c 35 aa 9c bb 0f 3c 85 b9
       -0.011443862 0.011344419 -0.0047810324 -0.00025412484

sequential/lstm/while/lstm_cell/split_11 f4 [64]
000000 bd 01 14 bc ee 38 16 3c a6 2c eb 3b 6b 02 bd bb
       -0.009033618 0.0091688465 0.0071769534 -0.0057681105
000010 33 6a d2 bb eb 25 45 bc db 43 29 bc d4 5c 88 3c
       -0.0064213513 -0.012032966 -0.010331119 0.016645826
000020 21 07 22 3c 4f 89 8b bb 5b f2 b0 bb 56 85 56 3a
       0.009889395 -0.004258312 -0.005399985 0.0008183321
000030 a7 ea 4a bb 46 c0 19 3c 2e e6 23 3d e5 20 4f 3b
       -0.0030962618 0.0093842205 0.04001444 0.00316053
000040 97 f2 14 bc dd 74 23 bc bc fa 18 bb 1b d5 fd bb
       -0.009091041 -0.009976593 -0.0023342809 -0.0077463514
000050 48 89 ff bb f9 54 17 bc b4 1c 5a bc 27 8c 43 3d
       -0.0077983476 -0.009236568 -0.013312507 0.04774108
000060 85 dc 56 bb c0 10 67 3b 89 eb 20 bc 02 e4 a4 3b
       -0.0032785248 0.0035257787 -0.009821781 0.0050320635
000070 79 37 07 bc 46 e3 ef 3b f4 9b 0f bb 91 d8 b0 39
       -0.008252972 0.0073207943 -0.0021913024 0.0003373069
000080 f9 0b 15 3c 50 9a bf ba 2b e6 a3 38 cd 05 15 bb
       0.009097093 -0.0014618132 7.815318e-05 -0.0022739053
000090 ee 18 8d ba fc 56 a6 bb 63 95 3c 3a 1e c3 f1 3b
       -0.0010764876 -0.0050762873 0.0007193891 0.007377996
0000a0 55 7b bb bb 3c 69 45 bc 6e af d3 bb 91 9a b7 3b
       -0.0057214894 -0.012049016 -0.006460122 0.0056031425
0000b0 df ac 51 bc a5 cf 35 bb 42 27 14 bc 7f 58 75 3a
       -0.012797563 -0.0027742174 -0.009042563 0.0009359195
0000c0 c8 e5 ca bb 1c 34 61 bb fa 45 9b 3b 75 c9 33 3c
       -0.006191943 -0.0034363335 0.0047385665 0.010973324
0000d0 00 00 00 00 09 34 0c 3b e5 58 43 3b 1d aa ce 3b
       0.0 0.002139332 0.0029807624 0.0063069
0000e0 e0 0a 05 bb 49 61 bd 3a de e4 cc 3b 55 28 95 ba
       -0.0020300671 0.0014448549 0.006252869 -0.0011379818
0000f0 34 3d 80 bc de af df 3b a5 b7 5a bb 1d bd 7d bb
       -0.015654184 0.006826385 -0.003337362 -0.0038717457

sequential/lstm/while/lstm_cell/split_12 f4 [64]
000000 9b b3 7f 3f ab 09 81 3f af 6e 81 3f 39 86 7e 3f
       0.9988343 1.0081075 1.0111903 0.9942356
000010 5a 87 7e 3f 21 f4 7b 3f 3d e1 7e 3f 63 61 80 3f
       0.9942528 0.98419386 0.99562436 1.002972
000020 4f 18 80 3f b9 92 7e 3f 2d 00 7f 3f a3 d7 7f 3f
       1.0007418 0.9944263 0.99609643 0.9993841
000030 58 bb 7d 3f ca ff 80 3f d9 63 86 3f 5a 6f 83 3f
       0.9911399 1.0078061 1.0499221 1.0268357
000040 1b b7 80 3f d6 e5 7d 3f f7 6f 7f 3f 91 bf 7e 3f
       1.0055879 0.99178827 0.9978022 0.9951106
000050 10 03 80 3f e6 5c 7e 3f 33 26 7e 3f c7 38 88 3f
       1.0000935 0.993605 0.9927704 1.0642327
000060 ab a9 7f 3f 9b 28 80 3f 8a ad 7e 3f 40 53 7d 3f
       0.9986827 1.0012392 0.9948355 0.98955154
000070 fb 40 7e 3f a0 2d 80 3f fe 81 80 3f 0e 44 80 3f
       0.993179 1.0013924 1.003967 1.0020769
000080 2d 49 81 3f a2 a3 80 3f 25 a5 7e 3f 25 cc 7e 3f
       1.0100456 1.0049937 0.9947074 0.9953025
000090 95 f2 80 3f 3d 79 7e 3f 16 e1 7f 3f a1 47 7f 3f
       1.007403 0.99403745 0.9995283 0.9971867
0000a0 1e 0e 7d 3f d4 ba 7c 3f 19 28 80 3f 1a 84 83 3f
       0.98849666 0.9872258 1.0012237 1.0274689
0000b0 c1 90 7f 3f 64 e3 81 3f c4 27 80 3f b2 9a 7f 3f
       0.9983025 1.0147519 1.0012136 0.9984542
0000c0 f2 62 80 3f 8b 0f 80 3f 69 d5 7e 3f 9d 9a 81 3f
       1.0030196 1.0004743 0.9954439 1.0125309
0000d0 00 00 80 3f 63 00 80 3f d5 12 80 3f ce f3 80 3f
       1.0 1.0000118 1.0005747 1.0074403
0000e0 38 ff 7d 3f b5 0a 80 3f 2c ff 80 3f 00 b1 7f 3f
       0.9921756 1.0003268 1.0077872 0.99879456
0000f0 80 ff 7c 3f 7b 6a 81 3f 41 d8 7e 3f 61 ba 7f 3f
       0.9882736 1.011062 0.9954873 0.99893767

sequential/lstm/while/lstm_cell/split_13 f4 [64]
000000 8a 27 90 bb da 38 e3 3b 16 56 01 3c 7b 37 e6 bb
       -0.0043992447 0.0069342675 0.00789406 -0.0070256568
000010 2f d7 ea bb 37 ed 5d bc 20 fc 7b bb c8 49 05 3c
       -0.007166765 -0.013545326 -0.0038449839 0.008135267
000020 fc 92 2a 3c b0 15 f2 bb c1 99 c3 bb f3 e5 ec 3a
       0.01041102 -0.0073878393 -0.0059692566 0.0018073901
000030 37 b0 53 bc 2a e5 f0 3b a2 2e 43 3d 61 80 8d 3b
       -0.012920431 0.0073515372 0.047651894 0.0043182825
000040 df 00 9a 3b f4 40 eb bb 8d 16 fc ba 6c 19 ae bb
       0.004699811 -0.007179374 -0.0019232795 -0.005313089
000050 ec 02 04 3a 36 1d 0d bc 97 49 08 bc b9 60 49 3d
       0.0005035836 -0.008612921 -0.008318326 0.049164508
000060 47 bc 0e 3a 93 f4 5f 3b 6a aa 89 bb f1 5e ad bb
       0.00054449256 0.0034172877 -0.004201223 -0.005290859
000070 d1 1c 04 bc ce 2e 8e 3b 2c bf 48 bb f8 dd 67 3a
       -0.008063511 0.0043390756 -0.0030631525 0.00088450266
000080 c9 0c 17 3c fc 11 ad bb 6c fc 9d bb 0b df 8f ba
       0.009219357 -0.005281685 -0.004821351 -0.0010976506
000090 f2 6d fd 3b 4e 7b c2 bb dd 17 5e ba 77 c0 4b bb
       0.007734054 -0.005935109 -0.0008472184 -0.003109006
0000a0 85 68 08 bb e3 ae 6f bc 53 50 b8 bb 1e 2f d3 3a
       -0.0020814252 -0.014629099 -0.00562481 0.0016112064
0000b0 33 6a 58 bb 0f 62 fa b9 70 ad 8e bb f3 7f 91 ba
       -0.0033022284 -0.00047756775 -0.0043541715 -0.0011100754
0000c0 e1 00 e8 bb 70 0a 8e ba f5 f2 13 bc 3b 05 3e 3c
       -0.007080183 -0.0010836851 -0.009030093 0.011597927
0000d0 00 00 00 00 47 b7 35 ba 7d 11 68 ba d2 96 e2 3b
       0.0 -0.00069319125 -0.00088527036 0.006914952
0000e0 c3 1f b9 bb fd 72 43 3b 88 04 b7 3b ba 87 17 b9
       -0.0056495382 0.0029823177 0.005585257 -0.00014451044
0000f0 fd 01 40 bc f7 4f 2c 3c 9f bb 8d bb d1 28 37 bb
       -0.011719224 0.010517112 -0.0043253447 -0.0027947912

sequential/lstm/while/lstm_cell/MatMul_41 i1 [64, 64] scale=0.0018485656 zero_point=0
000000 fb e0 ed 0a 06 f3 d9 4c 12 15 14 1d 26 0b 19 29
       -0.009242828 -0.0591541 -0.03512275 0.018485656 0.011091394 -0.024031354 -0.07209406 0.140491 0.03327418 0.03881988 0.036971312 0.053608403 0.0702455 0.020334221 0.04621414 0.075791195
000010 25 31 03 0d 38 16 2a eb dd fe f7 10 dc ad f9 26
       0.068396926 0.09057972 0.005545697 0.024031354 0.10351968 0.040668443 0.07763976 -0.03881988 -0.0646998 -0.0036971313 -0.01663709 0.02957705 -0.06654836 -0.15343095 -0.01293996 0.0702455
000020 3a fb 2f 0c 11 0a f4 03 ee bf 22 fc 04 04 2a 02
       0.107216805 -0.009242828 0.086882584 0.022182789 0.031425618 0.018485656 -0.022182789 0.005545697 -0.03327418 -0.120156765 0.062851235 -0.0073942626 0.0073942626 0.0073942626 0.07763976 0.0036971313
000030 0a 14 1a eb 24 df 15 16 45 1c 09 2b 14 23 26 30
       0.018485656 0.036971312 0.04806271 -0.03881988 0.06654836 -0.061002668 0.03881988 0.040668443 0.12755103 0.05175984 0.01663709 0.07948832 0.036971312 0.0646998 0.0702455 0.088731155
000040 fc 19 07 51 04 1a f5 3c ab e0 1d 17 15 06 fc 1e
       -0.0073942626 0.04621414 0.01293996 0.14973381 0.0073942626 0.04806271 -0.020334221 0.11091394 -0.15712808 -0.0591541 0.053608403 0.04251701 0.03881988 0.011091394 -0.0073942626 0.05545697
000050 2b 17 f0 42 f1 dc 4e 2b 2f ec 01 2f 0e 0e f4 ee
       0.07948832 0.04251701 -0.02957705 0.122005336 -0.027728485 -0.06654836 0.14418812 0.07948832 0.086882584 -0.036971312 0.0018485656 0.086882584 0.02587992 0.02587992 -0.022182789 -0.03327418
000060 c8 27 0d 20 12 29 fa 00 2c 10 3d 07 cc 06 08 f7
       -0.10351968 0.07209406 0.024031354 0.0591541 0.03327418 0.075791195 -0.011091394 0.0 0.081336886 0.02957705 0.1127625 0.01293996 -0.09612542 0.011091394 0.014788525 -0.01663709
000070 f8 35 d8 f5 fd b1 c5 ff 12 03 39 39 ea e6 1f f6
       -0.014788525 0.09797398 -0.073942624 -0.020334221 -0.005545697 -0.14603668 -0.109065376 -0.0018485656 0.03327418 0.005545697 0.10536824 0.10536824 -0.040668443 -0.04806271 0.057305533 -0.018485656
000080 22 de 2a 3a 08 f4 1b f8 09 16 0f 10 0c 25 36 fb
       0.062851235 -0.062851235 0.07763976 0.107216805 0.014788525 -0.022182789 0.04991127 -0.014788525 0.01663709 0.040668443 0.027728485 0.02957705 0.022182789 0.068396926 0.09982254 -0.009242828
000090 cc c9 0b 1d e5 17 ee 02 f2 28 25 ca fd 2c 09 fe
       -0.09612542 -0.10167111 0.020334221 0.053608403 -0.04991127 0.04251701 -0.03327418 0.0036971313 -0.02587992 0.073942624 0.068396926 -0.09982254 -0.005545697 0.081336886 0.01663709 -0.0036971313
0000a0 fb 20 10 00 1e ad 1d 25 2a 33 d1 64 f8 0e 4a f3
       -0.009242828 0.0591541 0.02957705 0.0 0.05545697 -0.15343095 0.053608403 0.068396926 0.07763976 0.094276845 -0.086882584 0.18485656 -0.014788525 0.02587992 0.13679385 -0.024031354
0000b0 0f 2c 11 ec 09 22 f7 34 18 f5 05 22 ff 11 f2 06
       0.027728485 0.081336886 0.031425618 -0.036971312 0.01663709 0.062851235 -0.01663709 0.09612542 0.044365577 -0.020334221 0.009242828 0.062851235 -0.0018485656 0.031425618 -0.02587992 0.011091394
0000c0 0c e7 17 25 1c 0f df 0e 24 05 f1 07 34 dd 14 16
       0.022182789 -0.04621414 0.04251701 0.068396926 0.05175984 0.027728485 -0.061002668 0.02587992 0.06654836 0.009242828 -0.027728485 0.01293996 0.09612542 -0.0646998 0.036971312 0.040668443
0000d0 43 db e7 fc 09 a5 4e fa ea 00 d8 1a 1b eb e8 e5
       0.1238539 -0.068396926 -0.04621414 -0.0073942626 0.01663709 -0.16821948 0.14418812 -0.011091394 -0.040668443 0.0 -0.073942624 0.04806271 0.04991127 -0.03881988 -0.044365577 -0.04991127
0000e0 de f4 13 35 0d e8 05 e1 f6 22 11 f1 43 df ed 12
       -0.062851235 -0.022182789 0.03512275 0.09797398 0.024031354 -0.044365577 0.009242828 -0.057305533 -0.018485656 0.062851235 0.031425618 -0.027728485 0.1238539 -0.061002668 -0.03512275 0.03327418
0000f0 21 0c ff e8 fe 0a fc ef f6 32 1d 1b 4a f8 e1 f5
       0.061002668 0.022182789 -0.0018485656 -0.044365577 -0.0036971313 0.018485656 -0.0073942626 -0.031425618 -0.018485656 0.09242828 0.053608403 0.04991127 0.13679385 -0.014788525 -0.057305533 -0.020334221

sequential/lstm/while/lstm_cell/MatMul_5 i1 [64, 64] scale=0.0018914401 zero_point=0
000000 f6 fc 0c 28 00 b5 fb 22 06 c6 cd e9 10 38 1a d5
       -0.018914402 -0.0075657605 0.022697281 0.075657606 0.0 -0.14185801 -0.009457201 0.06430896 0.011348641 -0.109703526 -0.09646345 -0.043503124 0.030263042 0.10592065 0.04917744 -0.08133192
000010 4d 19 25 07 14 10 f1 22 2f da db 26 0d e5 01 4c
       0.1456409 0.047286004 0.06998328 0.013240081 0.037828803 0.030263042 -0.028371602 0.06430896 0.08889768 -0.07187472 -0.06998328 0.07187472 0.02458872 -0.051068883 0.0018914401 0.14374945
000020 1c 23 22 ea ed 21 e9 2b 08 1f f6 1a 09 05 eb 0c
       0.052960325 0.066200405 0.06430896 -0.041611683 -0.03593736 0.062417526 -0.043503124 0.08133192 0.015131521 0.058634643 -0.018914402 0.04917744 0.017022962 0.009457201 -0.03972024 0.022697281
000030 d5 e7 d8 c1 d3 f9 00 0e da 20 e9 e7 cb fb 00 f1
       -0.08133192 -0.047286004 -0.075657606 -0.11916073 -0.08511481 -0.013240081 0.0 0.026480163 -0.07187472 0.060526084 -0.043503124 -0.047286004 -0.100246325 -0.009457201 0.0 -0.028371602
000040 13 13 0e 0c 39 06 b9 37 03 e3 e6 05 ec e2 20 13
       0.03593736 0.03593736 0.026480163 0.022697281 0.107812084 0.011348641 -0.13429224 0.10402921 0.0056743203 -0.054851763 -0.04917744 0.009457201 -0.037828803 -0.056743205 0.060526084 0.03593736
000050 f7 26 23 cc 32 e0 12 1c 06 d4 18 1a 2a 1f 30 db
       -0.017022962 0.07187472 0.066200405 -0.09835488 0.09457201 -0.060526084 0.034045924 0.052960325 0.011348641 -0.083223365 0.045394562 0.04917744 0.07944048 0.058634643 0.090789124 -0.06998328
000060 dd 23 23 14 1a f9 e4 26 cf d9 f8 e1 d2 de 02 e7
       -0.066200405 0.066200405 0.066200405 0.037828803 0.04917744 -0.013240081 -0.052960325 0.07187472 -0.092680566 -0.073766164 -0.015131521 -0.058634643 -0.08700625 -0.06430896 0.0037828803 -0.047286004
000070 13 11 05 f3 03 f0 e0 f9 16 d3 f8 e3 b4 49 1f e9
       0.03593736 0.03215448 0.009457201 -0.02458872 0.0056743203 -0.030263042 -0.060526084 -0.013240081 0.041611683 -0.08511481 -0.015131521 -0.054851763 -0.14374945 0.13807513 0.058634643 -0.043503124
000080 f4 1f ec d8 fa f3 ff 1e 4f df ec a6 15 0f 1b f5
       -0.022697281 0.058634643 -0.037828803 -0.075657606 -0.011348641 -0.02458872 -0.0018914401 0.056743205 0.14942376 -0.062417526 -0.037828803 -0.17022961 0.03972024 0.028371602 0.051068883 -0.020805841
000090 18 ff 19 cf fc e4 dd 47 ff 16 0e e9 e9 19 52 23
       0.045394562 -0.0018914401 0.047286004 -0.092680566 -0.0075657605 -0.052960325 -0.066200405 0.13429224 -0.0018914401 0.041611683 0.026480163 -0.043503124 -0.043503124 0.047286004 0.1550981 0.066200405
0000a0 f5 34 ed 12 ef 18 fe d8 e3 27 fd 3d e6 d0 4e d6
       -0.020805841 0.09835488 -0.03593736 0.034045924 -0.03215448 0.045394562 -0.0037828803 -0.075657606 -0.054851763 0.073766164 -0.0056743203 0.11537785 -0.04917744 -0.090789124 0.14753233 -0.07944048
0000b0 0c 34 01 e4 04 e8 cc 34 ff 0d 00 16 17 b5 00 d0
       0.022697281 0.09835488 0.0018914401 -0.052960325 0.0075657605 -0.045394562 -0.09835488 0.09835488 -0.0018914401 0.02458872 0.0 0.041611683 0.043503124 -0.14185801 0.0 -0.090789124
0000c0 f2 39 e1 e5 d7 e0 c4 22 06 f2 0d f9 ff 08 07 ef
       -0.026480163 0.107812084 -0.058634643 -0.051068883 -0.07754905 -0.060526084 -0.11348641 0.06430896 0.011348641 -0.026480163 0.02458872 -0.013240081 -0.0018914401 0.015131521 0.013240081 -0.03215448
0000d0 d9 bf df 15 28 39 f9 df de 27 08 e7 48 1a f6 f5
       -0.073766164 -0.12294361 -0.062417526 0.03972024 0.075657606 0.107812084 -0.013240081 -0.062417526 -0.06430896 0.073766164 0.015131521 -0.047286004 0.1361837 0.04917744 -0.018914402 -0.020805841
0000e0 1b fc 07 17 e8 05 3c 0f d4 b1 e8 33 0c bd f8 c0
       0.051068883 -0.0075657605 0.013240081 0.043503124 -0.045394562 0.009457201 0.11348641 0.028371602 -0.083223365 -0.14942376 -0.045394562 0.09646345 0.022697281 -0.1267265 -0.015131521 -0.12105217
0000f0 2c e1 23 a6 19 ef db 02 17 28 d3 08 d8 fc 54 f4
       0.083223365 -0.058634643 0.066200405 -0.17022961 0.047286004 -0.03215448 -0.06998328 0.0037828803 0.043503124 0.075657606 -0.08511481 0.015131521 -0.075657606 -0.0075657605 0.15888096 -0.022697281

sequential/lstm/while/lstm_cell/MatMul_6 i1 [64, 64] scale=0.0018849395 zero_point=0
000000 0c 3a 15 2b ea cc 0a cf 04 df 17 31 f4 3b 04 cf
       0.022619274 0.10932649 0.039583728 0.0810524 -0.04146867 -0.09801685 0.018849395 -0.09236204 0.007539758 -0.062203005 0.04335361 0.09236204 -0.022619274 0.111211434 0.007539758 -0.09236204
000010 dd 3c dd e5 04 04 fd ee f9 00 c8 34 f6 2f 42 40
       -0.06597288 0.11309637 -0.06597288 -0.050893366 0.007539758 0.007539758 -0.0056548184 -0.033928912 -0.013194577 0.0 -0.105556615 0.09801685 -0.018849395 0.08859216 0.12440601 0.12063613
000020 03 03 4d 2e 0a 07 09 1c d7 00 26 03 ef f8 0a f5
       0.0056548184 0.0056548184 0.14514033 0.08670722 0.018849395 0.013194577 0.016964456 0.052778307 -0.07728252 0.0 0.0716277 0.0056548184 -0.03204397 -0.015079516 0.018849395 -0.020734334
000030 0c e3 fc f8 20 b9 2a f0 2a 05 f1 09 19 d9 d5 24
       0.022619274 -0.054663245 -0.007539758 -0.015079516 0.060318064 -0.13383071 0.079167455 -0.030159032 0.079167455 0.009424698 -0.028274093 0.016964456 0.047123488 -0.07351264 -0.0810524 0.067857824
000040 23 e9 fc 42 c4 0e c7 03 2b f9 23 0d 1f ee 24 08
       0.06597288 -0.04335361 -0.007539758 0.12440601 -0.11309637 0.026389154 -0.10744155 0.0056548184 0.0810524 -0.013194577 0.06597288 0.024504213 0.058433123 -0.033928912 0.067857824 0.015079516
000050 0f 17 12 26 d0 1e 28 09 fc 14 4b d7 0a e7 ec 38
       0.028274093 0.04335361 0.033928912 0.0716277 -0.090477094 0.056548186 0.07539758 0.016964456 -0.007539758 0.03769879 0.14137046 -0.07728252 0.018849395 -0.047123488 -0.03769879 0.105556615
000060 d3 f2 0b ac fe 04 23 45 fa 05 c9 c0 10 ee 26 39
       -0.084822275 -0.026389154 0.020734334 -0.15833491 -0.003769879 0.007539758 0.06597288 0.13006082 -0.011309637 0.009424698 -0.10367167 -0.12063613 0.030159032 -0.033928912 0.0716277 0.10744155
000070 fb 0f d6 25 d1 25 df e2 f8 38 0b 0c 20 1c 1b d5
       -0.009424698 0.028274093 -0.079167455 0.06974276 -0.08859216 0.06974276 -0.062203005 -0.056548186 -0.015079516 0.105556615 0.020734334 0.022619274 0.060318064 0.052778307 0.050893366 -0.0810524
000080 18 d6 f6 e0 fb 0c e4 29 b5 d7 cd f9 1c 1a fb d8
       0.045238547 -0.079167455 -0.018849395 -0.060318064 -0.009424698 0.022619274 -0.052778307 0.07728252 -0.14137046 -0.07728252 -0.09613191 -0.013194577 0.052778307 0.049008425 -0.009424698 -0.07539758
000090 08 07 e3 04 df 02 ec 2b e9 23 0b 19 fb b7 0a 12
       0.015079516 0.013194577 -0.054663245 0.007539758 -0.062203005 0.003769879 -0.03769879 0.0810524 -0.04335361 0.06597288 0.020734334 0.047123488 -0.009424698 -0.13760059 0.018849395 0.033928912
0000a0 d7 43 e9 2b 44 f2 26 15 f4 15 16 02 ed 1d 26 f7
       -0.07728252 0.12629095 -0.04335361 0.0810524 0.12817588 -0.026389154 0.0716277 0.039583728 -0.022619274 0.039583728 0.04146867 0.003769879 -0.03581385 0.054663245 0.0716277 -0.016964456
0000b0 10 f6 19 eb e9 37 35 fa 0d e5 18 26 2f fd e4 21
       0.030159032 -0.018849395 0.047123488 -0.039583728 -0.04335361 0.10367167 0.099901795 -0.011309637 0.024504213 -0.050893366 0.045238547 0.0716277 0.08859216 -0.0056548184 -0.052778307 0.062203005
0000c0 d5 fc 27 0a 0b 24 35 e8 eb fd 50 1e e8 02 07 39
       -0.0810524 -0.007539758 0.07351264 0.018849395 0.020734334 0.067857824 0.099901795 -0.045238547 -0.039583728 -0.0056548184 0.15079516 0.056548186 -0.045238547 0.003769879 0.013194577 0.10744155
0000d0 0f 12 d9 f2 1d e7 e3 e7 d4 c3 f9 03 34 38 16 0f
       0.028274093 0.033928912 -0.07351264 -0.026389154 0.054663245 -0.047123488 -0.054663245 -0.047123488 -0.08293734 -0.11498131 -0.013194577 0.0056548184 0.09801685 0.105556615 0.04146867 0.028274093
0000e0 30 1e f5 cc e1 ee ed fc 0c f1 08 f1 ec e9 04 d6
       0.090477094 0.056548186 -0.020734334 -0.09801685 -0.058433123 -0.033928912 -0.03581385 -0.007539758 0.022619274 -0.028274093 0.015079516 -0.028274093 -0.03769879 -0.04335361 0.007539758 -0.079167455
0000f0 dd eb eb d1 27 da ed 1a fc 02 08 3b 25 f2 17 0e
       -0.06597288 -0.039583728 -0.039583728 -0.08859216 0.07351264 -0.0716277 -0.03581385 0.049008425 -0.007539758 0.003769879 0.015079516 0.111211434 0.06974276 -0.026389154 0.04335361 0.026389154

sequential/lstm/while/lstm_cell/MatMul_7 i1 [64, 64] scale=0.0017802006 zero_point=0
000000 1d b2 04 d4 f1 1d fc 26 fa f7 17 25 0c 1f 18 f2
       0.051625818 -0.13885565 0.0071208025 -0.078328826 -0.02670301 0.051625818 -0.0071208025 0.06764762 -0.010681204 -0.016021805 0.040944614 0.065867424 0.021362407 0.05518622 0.042724814 -0.024922809
000010 39 ee 10 0f fb 5b d7 15 e0 d0 39 30 0c 13 36 2b
       0.10147144 -0.03204361 0.02848321 0.02670301 -0.008901003 0.16199826 -0.07298823 0.037384212 -0.05696642 -0.08544963 0.10147144 0.08544963 0.021362407 0.03382381 0.09613083 0.07654863
000020 ea e7 4d da e2 0c 07 28 c0 0c 43 3a f0 f4 ec f1
       -0.039164413 -0.044505015 0.13707545 -0.06764762 -0.05340602 0.021362407 0.012461404 0.07120802 -0.11393284 0.021362407 0.11927344 0.103251636 -0.02848321 -0.021362407 -0.03560401 -0.02670301
000030 49 1e dc e0 ed 17 f6 e8 ec 26 1f 33 07 e5 2d a0
       0.12995465 0.05340602 -0.06408722 -0.05696642 -0.03382381 0.040944614 -0.017802006 -0.042724814 -0.03560401 0.06764762 0.05518622 0.090790235 0.012461404 -0.048065417 0.08010903 -0.17089926
000040 42 0e 46 db fe 05 14 bf d3 e8 07 e6 f5 0f e3 b7
       0.11749324 0.024922809 0.124614045 -0.065867424 -0.0035604013 0.008901003 0.03560401 -0.11571304 -0.08010903 -0.042724814 0.012461404 -0.046285216 -0.019582206 0.02670301 -0.051625818 -0.12995465
000050 c1 e7 fc 20 ee 03 ca fc e6 17 2f fe d9 04 e6 10
       -0.11215264 -0.044505015 -0.0071208025 0.05696642 -0.03204361 0.005340602 -0.09613083 -0.0071208025 -0.046285216 0.040944614 0.08366943 -0.0035604013 -0.069427826 0.0071208025 -0.046285216 0.02848321
000060 06 db 01 0b 08 eb 2f f4 d6 df 0b 1f 3f d4 02 08
       0.010681204 -0.065867424 0.0017802006 0.019582206 0.014241605 -0.037384212 0.08366943 -0.021362407 -0.074768424 -0.05874662 0.019582206 0.05518622 0.11215264 -0.078328826 0.0035604013 0.014241605
000070 d9 17 e7 2d f2 e3 05 f7 ee f9 50 cc 32 ca 21 43
       -0.069427826 0.040944614 -0.044505015 0.08010903 -0.024922809 -0.051625818 0.008901003 -0.016021805 -0.03204361 -0.012461404 0.14241605 -0.09257043 0.08901003 -0.09613083 0.05874662 0.11927344
000080 d4 dc 0d d5 0d 0e 10 33 14 04 cc f5 19 f4 e6 2b
       -0.078328826 -0.06408722 0.023142608 -0.07654863 0.023142608 0.024922809 0.02848321 0.090790235 0.03560401 0.0071208025 -0.09257043 -0.019582206 0.044505015 -0.021362407 -0.046285216 0.07654863
000090 05 38 fe b7 ed 15 fb f2 ed 09 2e 15 d9 2e e5 f6
       0.008901003 0.099691235 -0.0035604013 -0.12995465 -0.03382381 0.037384212 -0.008901003 -0.024922809 -0.03382381 0.016021805 0.08188923 0.037384212 -0.069427826 0.08188923 -0.048065417 -0.017802006
0000a0 c5 48 b3 11 14 24 20 3e 0b 14 1c 1b 02 c1 0d 57
       -0.10503184 0.12817444 -0.13707545 0.03026341 0.03560401 0.06408722 0.05696642 0.11037244 0.019582206 0.03560401 0.049845617 0.048065417 0.0035604013 -0.11215264 0.023142608 0.15487745
0000b0 39 ec df 29 f6 1d 43 ef 3a f1 07 2b ea bb ff f0
       0.10147144 -0.03560401 -0.05874662 0.07298823 -0.017802006 0.051625818 0.11927344 -0.03026341 0.103251636 -0.02670301 0.012461404 0.07654863 -0.039164413 -0.12283384 -0.0017802006 -0.02848321
0000c0 c9 e3 fe 07 ea 08 f4 c1 2f e8 b4 f8 ea 25 b4 c9
       -0.09791104 -0.051625818 -0.0035604013 0.012461404 -0.039164413 0.014241605 -0.021362407 -0.11215264 0.08366943 -0.042724814 -0.13529524 -0.014241605 -0.039164413 0.065867424 -0.13529524 -0.09791104
0000d0 01 0e fb 15 3f ac 37 d1 df da fb 04 14 de 2d 01
       0.0017802006 0.024922809 -0.008901003 0.037384212 0.11215264 -0.14953685 0.09791104 -0.08366943 -0.05874662 -0.06764762 -0.008901003 0.0071208025 0.03560401 -0.06052682 0.08010903 0.0017802006
0000e0 0f d9 19 fa e2 17 fa e0 c7 08 0d da 2f fe 22 b7
       0.02670301 -0.069427826 0.044505015 -0.010681204 -0.05340602 0.040944614 -0.010681204 -0.05696642 -0.10147144 0.014241605 0.023142608 -0.06764762 0.08366943 -0.0035604013 0.06052682 -0.12995465
0000f0 18 1e 12 23 ee ed f2 20 00 13 d9 10 07 cb f4 be
       0.042724814 0.05340602 0.03204361 0.062307023 -0.03204361 -0.03382381 -0.024922809 0.05696642 0.0 0.03382381 -0.069427826 0.02848321 0.012461404 -0.094350636 -0.021362407 -0.11749324

sequential/lstm/while/lstm_cell/MatMul i1 [64, 126] scale=0.0014214454 zero_point=0
000000 14 ed 4b d2 06 56 bb cf 03 f4 15 df fc d8 f4 16
       0.028428908 -0.027007462 0.106608406 -0.06538649 0.008528672 0.122244306 -0.09807973 -0.06965082 0.004264336 -0.017057344 0.029850353 -0.046907697 -0.0056857816 -0.056857817 -0.017057344 0.0312718
000010 32 c8 ca d6 be e9 aa 59 a5 18 0d e0 db 34 b8 ce
       0.07107227 -0.079600945 -0.07675805 -0.059700705 -0.093815394 -0.032693245 -0.122244306 0.12650864 -0.12935153 0.03411469 0.01847879 -0.045486253 -0.05259348 0.07391516 -0.102344066 -0.07107227
000020 2a e1 ee de a9 e5 56 e9 c4 2e a4 24 19 2a 10 dd
       0.059700705 -0.04406481 -0.025586016 -0.048329145 -0.12366575 -0.038379025 0.122244306 -0.032693245 -0.08528672 0.06538649 -0.13077298 0.051172033 0.035536136 0.059700705 0.022743126 -0.04975059
000030 f9 ce 1d ab 16 37 db b5 00 40 36 e3 2e cc f4 50
       -0.009950118 -0.07107227 0.041221917 -0.12082286 0.0312718 0.07817949 -0.05259348 -0.106608406 0.0 0.090972506 0.07675805 -0.041221917 0.06538649 -0.07391516 -0.017057344 0.113715634
000040 5a 36 27 bf aa ee 1d f8 af 1b 32 25 1d e6 44 db
       0.12793009 0.07675805 0.05543637 -0.09239395 -0.122244306 -0.025586016 0.041221917 -0.011371563 -0.11513708 0.038379025 0.07107227 0.05259348 0.041221917 -0.03695758 0.09665829 -0.05259348
000050 f8 08 04 f2 4e 37 52 bf 4b 28 e4 b9 17 c6 35 cd
       -0.011371563 0.011371563 0.0056857816 -0.019900236 0.11087274 0.07817949 0.11655852 -0.09239395 0.106608406 0.056857817 -0.039800473 -0.10092262 0.032693245 -0.08244383 0.075336605 -0.07249372
000060 e1 d2 0d 40 12 1e 36 bb e2 d3 41 2a f3 3f d1 f0
       -0.04406481 -0.06538649 0.01847879 0.090972506 0.025586016 0.04264336 0.07675805 -0.09807973 -0.04264336 -0.063965045 0.09239395 0.059700705 -0.01847879 0.08955106 -0.06680793 -0.022743126
000070 51 f2 ca d8 b2 3d ba 07 18 de b5 b7 c3 10 d7 52
       0.11513708 -0.019900236 -0.07675805 -0.056857817 -0.11087274 0.086708166 -0.09950118 0.009950118 0.03411469 -0.048329145 -0.106608406 -0.10376552 -0.086708166 0.022743126 -0.05827926 0.11655852
000080 30 55 be ff 0c f6 cd da d0 e1 25 02 d6 b7 ca f6
       0.06822938 0.12082286 -0.093815394 -0.0014214454 0.017057344 -0.014214454 -0.07249372 -0.054014925 -0.06822938 -0.04406481 0.05259348 0.0028428908 -0.059700705 -0.10376552 -0.07675805 -0.014214454
000090 fa 56 c8 b5 d3 f5 eb d2 cb 06 f2 2a 18 04 e6 58
       -0.008528672 0.122244306 -0.079600945 -0.106608406 -0.063965045 -0.0156359 -0.029850353 -0.06538649 -0.075336605 0.008528672 -0.019900236 0.059700705 0.03411469 0.0056857816 -0.03695758 0.1250872
0000a0 1f 1b fd 21 d6 d8 38 e5 f9 af 3b b3 f1 4e f5 0c
       0.04406481 0.038379025 -0.004264336 0.046907697 -0.059700705 -0.056857817 0.079600945 -0.038379025 -0.009950118 -0.11513708 0.08386528 -0.109451294 -0.02132168 0.11087274 -0.0156359 0.017057344
0000b0 f5 3b df 11 35 2e 0f b7 47 17 34 43 14 21 59 14
       -0.0156359 0.08386528 -0.046907697 0.024164572 0.075336605 0.06538649 0.02132168 -0.10376552 0.10092262 0.032693245 0.07391516 0.095236845 0.028428908 0.046907697 0.12650864 0.028428908
0000c0 4a 09 d0 51 30 2f 51 dd 02 d3 13 08 eb 33 eb 30
       0.10518696 0.012793008 -0.06822938 0.11513708 0.06822938 0.06680793 0.11513708 -0.04975059 0.0028428908 -0.063965045 0.027007462 0.011371563 -0.029850353 0.07249372 -0.029850353 0.06822938
0000d0 45 ee 12 ec 3a 40 33 e6 1c fb 4a 28 b6 4f 50 30
       0.09807973 -0.025586016 0.025586016 -0.028428908 0.08244383 0.090972506 0.07249372 -0.03695758 0.039800473 -0.007107227 0.10518696 0.056857817 -0.10518696 0.11229419 0.113715634 0.06822938
0000e0 3d 30 03 b1 ed d7 1b d8 00 c0 1e f5 1a f8 ef bf
       0.086708166 0.06822938 0.004264336 -0.11229419 -0.027007462 -0.05827926 0.038379025 -0.056857817 0.0 -0.090972506 0.04264336 -0.0156359 0.03695758 -0.011371563 -0.024164572 -0.09239395
0000f0 f7 29 00 10 14 db c6 b5 17 1b 3e bc 14 25 31 fd
       -0.012793008 0.05827926 0.0 0.022743126 0.028428908 -0.05259348 -0.08244383 -0.106608406 0.032693245 0.038379025 0.08812962 -0.09665829 0.028428908 0.05259348 0.06965082 -0.004264336

sequential/lstm/while/lstm_cell/MatMul_1 i1 [64, 126] scale=0.0014649165 zero_point=0
000000 20 e5 4a bf 18 59 db 19 e5 22 2e 02 b9 cf 09 05
       0.04687733 -0.039552744 0.108403824 -0.095219575 0.035157997 0.13037758 -0.054201912 0.03662291 -0.039552744 0.04980716 0.06738616 0.002929833 -0.10400907 -0.07178091 0.0131842485 0.0073245824
000010 32 e2 c8 eb bf 3e d6 cc 2b df c1 20 db 18 be bc
       0.07324582 -0.043947496 -0.082035325 -0.030763246 -0.095219575 0.09082482 -0.061526492 -0.07617566 0.06299141 -0.048342247 -0.09228974 0.04687733 -0.054201912 0.035157997 -0.09668449 -0.09961432
000020 28 aa c1 20 e3 c4 01 b7 0d 21 16 18 f8 3e 24 df
       0.05859666 -0.12598282 -0.09228974 0.04687733 -0.042482577 -0.08789499 0.0014649165 -0.106938906 0.019043915 0.048342247 0.032228164 0.035157997 -0.011719332 0.09082482 0.052736994 -0.048342247
000030 2e 28 be 40 ec c5 bc fa 45 12 23 3a 32 48 42 49
       0.06738616 0.05859666 -0.09668449 0.09375466 -0.02929833 -0.08643007 -0.09961432 -0.008789499 0.10107924 0.026368497 0.05127208 0.084965155 0.07324582 0.10547399 0.09668449 0.106938906
000040 c6 14 c0 2a a1 30 d3 9f dd 11 33 54 28 47 d7 e3
       -0.084965155 0.02929833 -0.09375466 0.061526492 -0.13916707 0.070315994 -0.06592124 -0.1420969 -0.05127208 0.02490358 0.07471074 0.123052984 0.05859666 0.10400907 -0.060061578 -0.042482577
000050 0e 12 55 4d af 45 e4 0d f3 07 e3 d4 f6 25 4d 1a
       0.020508831 0.026368497 0.1245179 0.11279857 -0.11865824 0.10107924 -0.041017663 0.019043915 -0.019043915 0.010254416 -0.042482577 -0.06445633 -0.014649165 0.054201912 0.11279857 0.03808783
000060 09 4e 24 ff 31 f5 32 3e b9 2c 0b ed d2 1d de 58
       0.0131842485 0.11426349 0.052736994 -0.0014649165 0.07178091 -0.016114082 0.07324582 0.09082482 -0.10400907 0.06445633 0.016114082 -0.027833413 -0.06738616 0.042482577 -0.04980716 0.12891266
000070 46 ac c0 e8 d2 00 ee 09 d8 f5 f5 e1 27 48 c8 1c
       0.10254416 -0.123052984 -0.09375466 -0.035157997 -0.06738616 0.0 -0.026368497 0.0131842485 -0.05859666 -0.016114082 -0.016114082 -0.04541241 0.057131745 0.10547399 -0.082035325 0.041017663
000080 2a e4 16 20 e4 01 f4 bf 10 32 4c 35 31 2d 18 ea
       0.061526492 -0.041017663 0.032228164 0.04687733 -0.041017663 0.0014649165 -0.017578999 -0.095219575 0.023438664 0.07324582 0.11133365 0.07764058 0.07178091 0.06592124 0.035157997 -0.032228164
000090 fe ca b2 df bd 23 39 50 f8 bc e2 4b 18 12 bf f8
       -0.002929833 -0.07910549 -0.11426349 -0.048342247 -0.098149404 0.05127208 0.08350024 0.11719332 -0.011719332 -0.09961432 -0.043947496 0.109868735 0.035157997 0.026368497 -0.095219575 -0.011719332
0000a0 d4 19 45 eb 44 de c0 18 b9 ea b4 1b fd 32 d0 c9
       -0.06445633 0.03662291 0.10107924 -0.030763246 0.09961432 -0.04980716 -0.09375466 0.035157997 -0.10400907 -0.032228164 -0.11133365 0.039552744 -0.0043947496 0.07324582 -0.070315994 -0.08057041
0000b0 b3 da d1 34 2f 30 d0 c5 0b d6 2a 02 3a 12 d3 15
       -0.11279857 -0.055666827 -0.068851076 0.07617566 0.068851076 0.070315994 -0.070315994 -0.08643007 0.016114082 -0.061526492 0.061526492 0.002929833 0.084965155 0.026368497 -0.06592124 0.030763246
0000c0 51 e6 10 b6 43 f0 e3 2e cb 01 e6 03 4a ec bc ef
       0.11865824 -0.03808783 0.023438664 -0.108403824 0.098149404 -0.023438664 -0.042482577 0.06738616 -0.07764058 0.0014649165 -0.03808783 0.0043947496 0.108403824 -0.02929833 -0.09961432 -0.02490358
0000d0 33 04 df dc 39 d8 d8 2b fc 3e 51 fb 42 49 ff 55
       0.07471074 0.005859666 -0.048342247 -0.052736994 0.08350024 -0.05859666 -0.05859666 0.06299141 -0.005859666 0.09082482 0.11865824 -0.0073245824 0.09668449 0.106938906 -0.0014649165 0.1245179
0000e0 00 4a 2b fa b5 3d 58 34 00 2b d7 5a 28 25 b7 ce
       0.0 0.108403824 0.06299141 -0.008789499 -0.109868735 0.08935991 0.12891266 0.07617566 0.0 0.06299141 -0.060061578 0.13184248 0.05859666 0.054201912 -0.106938906 -0.07324582
0000f0 4e 04 f2 2b d7 2b 27 b5 0b 56 45 d9 f1 30 cc cd
       0.11426349 0.005859666 -0.020508831 0.06299141 -0.060061578 0.06299141 0.057131745 -0.109868735 0.016114082 0.12598282 0.10107924 -0.057131745 -0.021973748 0.070315994 -0.07617566 -0.07471074

sequential/lstm/while/lstm_cell/MatMul_2 i1 [64, 126] scale=0.0013383727 zero_point=0
000000 41 9a c0 99 ab 09 fc 99 1b 0b 1f 38 3d 26 f5 ce
       0.08699422 -0.13651402 -0.08565585 -0.13785239 -0.11376168 0.012045355 -0.005353491 -0.13785239 0.036136065 0.0147220995 0.041489553 0.07494887 0.081640735 0.050858162 -0.0147220995 -0.066918634
000010 9f df 2f 37 ba d4 36 f8 3a d5 b0 1c 40 fc ec d6
       -0.12982215 -0.0441663 0.062903516 0.0736105 -0.09368609 -0.058888398 0.07227213 -0.010706982 0.07762562 -0.057550028 -0.10706982 0.037474435 0.08565585 -0.005353491 -0.026767455 -0.056211654
000020 19 1c 99 68 be 2d c9 3c fc 64 e5 45 16 de 15 f7
       0.033459317 0.037474435 -0.13785239 0.13919076 -0.0883326 0.060226772 -0.0736105 0.080302365 -0.005353491 0.13383727 -0.036136065 0.09234772 0.029444199 -0.04550467 0.028105827 -0.012045355
000030 d3 02 f8 ad c6 ff c7 96 56 b3 0a e0 45 be 5f b3
       -0.060226772 0.0026767454 -0.010706982 -0.11108494 -0.07762562 -0.0013383727 -0.07628725 -0.1418675 0.115100056 -0.103054695 0.0133837275 -0.042827927 0.09234772 -0.0883326 0.12714541 -0.103054695
000040 d9 ba b5 c5 3b c2 13 c5 09 14 39 ca ef 32 b4 03
       -0.052196536 -0.09368609 -0.100377955 -0.07896399 0.07896399 -0.082979105 0.025429081 -0.07896399 0.012045355 0.026767455 0.07628725 -0.07227213 -0.022752335 0.066918634 -0.101716325 0.004015118
000050 12 3c d9 cb de 42 c5 d3 ae 9a f4 5c ab 21 cb aa
       0.02409071 0.080302365 -0.052196536 -0.07093375 -0.04550467 0.0883326 -0.07896399 -0.060226772 -0.10974656 -0.13651402 -0.016060472 0.12313029 -0.11376168 0.0441663 -0.07093375 -0.115100056
000060 12 d0 06 42 5f c0 48 02 23 0b c7 02 52 2e f8 eb
       0.02409071 -0.064241886 0.008030236 0.0883326 0.12714541 -0.08565585 0.09636284 0.0026767454 0.046843044 0.0147220995 -0.07628725 0.0026767454 0.10974656 0.061565146 -0.010706982 -0.028105827
000070 5e 4a 5a 20 57 fd e3 d2 ef 40 31 f4 09 d1 2f 23
       0.12580703 0.09903958 0.120453544 0.042827927 0.116438426 -0.004015118 -0.03881281 -0.061565146 -0.022752335 0.08565585 0.065580264 -0.016060472 0.012045355 -0.062903516 0.062903516 0.046843044
000080 d4 35 c5 c0 23 fa b0 fe fb 37 0d ae b8 ff 66 a0
       -0.058888398 0.07093375 -0.07896399 -0.08565585 0.046843044 -0.008030236 -0.10706982 -0.0026767454 -0.0066918638 0.0736105 0.017398845 -0.10974656 -0.09636284 -0.0013383727 0.13651402 -0.12848377
000090 18 f0 f1 c7 32 06 c6 bb f5 e7 39 22 f2 cb dc 47
       0.032120943 -0.021413963 -0.020075591 -0.07628725 0.066918634 0.008030236 -0.07762562 -0.09234772 -0.0147220995 -0.033459317 0.07628725 0.04550467 -0.018737217 -0.07093375 -0.04818142 0.09502446
0000a0 ac 48 04 32 31 3b 1f 48 40 2a 41 b1 fb c7 ba dc
       -0.11242331 0.09636284 0.005353491 0.066918634 0.065580264 0.07896399 0.041489553 0.09636284 0.08565585 0.056211654 0.08699422 -0.10573144 -0.0066918638 -0.07628725 -0.09368609 -0.04818142
0000b0 e6 ec e9 f0 2b 65 3d b1 31 00 d3 0f 27 44 0f 33
       -0.03479769 -0.026767455 -0.030782573 -0.021413963 0.057550028 0.13517565 0.081640735 -0.10573144 0.065580264 0.0 -0.060226772 0.020075591 0.052196536 0.09100934 0.020075591 0.06825701
0000c0 61 ad ba 2e c4 1d 48 01 3a 2f d3 10 c3 ca 36 5d
       0.12982215 -0.11108494 -0.09368609 0.061565146 -0.080302365 0.03881281 0.09636284 0.0013383727 0.07762562 0.062903516 -0.060226772 0.021413963 -0.081640735 -0.07227213 0.07227213 0.12446866
0000d0 f9 e5 52 1c f2 21 e0 e3 27 c5 0b dd b8 4c 36 f5
       -0.009368609 -0.036136065 0.10974656 0.037474435 -0.018737217 0.0441663 -0.042827927 -0.03881281 0.052196536 -0.07896399 0.0147220995 -0.046843044 -0.09636284 0.101716325 0.07227213 -0.0147220995
0000e0 41 48 e2 4f f0 ba ad 49 09 34 bb c4 51 22 cd 4d
       0.08699422 0.09636284 -0.040151183 0.10573144 -0.021413963 -0.09368609 -0.11108494 0.09770121 0.012045355 0.06959538 -0.09234772 -0.080302365 0.10840819 0.04550467 -0.06825701 0.103054695
0000f0 fd 27 ea d9 05 d2 53 fe c3 51 16 5e 36 f3 5d e2
       -0.004015118 0.052196536 -0.029444199 -0.052196536 0.0066918638 -0.061565146 0.11108494 -0.0026767454 -0.081640735 0.10840819 0.029444199 0.12580703 0.07227213 -0.017398845 0.12446866 -0.040151183
