app/src/main/assets/model.tflite (tflite, 245288 bytes, 42 tensors)

sequential/dense_2/MatMul f4 [3, 32]
00000000: 3236 073e 6685 91be dc21 ddbe ea6b 78be
00000010: d6c4 abbd 6898 82be 8160 dbbd d0ec f3bc
00000020: 0488 cd3e 72d9 8b3d 5343 953e 6950 2bbe
00000030: cbf4 c83d f1cc 9ebe 03fc 943e bab4 4ebd
00000040: fbca 6b3e 7d4b ad3e c26f 673e 437f bd3d
00000050: 90ab b7be 076f 943e d40d 88be 7d20 1ebd
00000060: edaa 12bc 775f 51be 9c53 fabe a65e 06bf
00000070: f3da d83d c3d3 1dbe ce8c b23d 681f ccbd
00000080: eb76 47be 693b 9f3e ab42 d8be 3924 253e
00000090: 9deb 983e 99bb c4be 965f ea3d 5fa9 3fbe
000000a0: 0dc4 94be dc25 4b3e d2b1 acbe 4bde 67be
000000b0: d89e 7abe e5ce 21be b920 96be 1c98 9cbb
000000c0: 12c6 983d fcc1 a7bc 5879 99be 11a3 323e
000000d0: f287 93be ead2 b63d 28bc 913e d22c da3c
000000e0: 3e66 983e ccfa 5e3e e942 b6be daba 1bbe
000000f0: 98ec 2a3e 7100 a3be 7b1c a2be 831f 6dbe
00000100: 2b15 933e d57c d83c 91a9 c23e f011 5dbe
00000110: aab5 adbe e05c ad3e 0005 5f3e 1e6d 503e
00000120: 02c2 963e d03e 83be 9f6f f9bd 351e c83c
00000130: e751 fa3d 760d 5a3e e7f1 9e3e 8967 00be
00000140: 6719 853e d61f 99be 8489 d6be b66e 0abe
00000150: 5ce1 a93e 1d59 7ebe aa31 b83e ae49 47bd
00000160: 7d06 ed3d 30ec a03e da14 843e 3db9 8ebc
00000170: fb3c 8c3e cbe8 4dbe 342c 97be 0ca9 50bd
0.13204268 -0.28422087 -0.43189895 -0.24259916 -0.08387153 -0.25506902 -0.10711766 -0.029776007
0.40142834 0.06828584 0.29152927 -0.16729893 0.098123156 -0.31015733 0.2909852 -0.050465323
0.2302665 0.33846655 0.22601226 0.09252789 -0.3587308 0.28990957 -0.2657305 -0.038605202
-0.008951885 -0.20446573 -0.48891914 -0.5248817 0.10588636 -0.15412812 0.087182626 -0.09966928
-0.19478957 0.31100014 -0.42238364 0.16127099 0.2986726 -0.38424376 0.11444013 -0.18716954
-0.29055825 0.19838661 -0.33729416 -0.22643392 -0.24474657 -0.1580158 -0.2932184 -0.004778875
0.07459654 -0.020478241 -0.2997539 0.17445017 -0.28814656 0.089269474 0.28463864 0.0266327
0.29765505 0.21775359 -0.35597923 -0.15207997 0.16691816 -0.31836274 -0.31662354 -0.23156552
0.28727087 0.026426712 0.38019994 -0.21588874 -0.3392766 0.3385992 0.21779251 0.20354125
0.2944489 -0.2563386 -0.12179493 0.024428466 0.12222653 0.21294197 0.31043932 -0.12539496
0.25995943 -0.299071 -0.4190179 -0.13518795 0.33179748 -0.24838682 0.3597539 -0.04865425
0.11573503 0.31430197 0.25797158 -0.017422313 0.27390274 -0.20108335 -0.29525912 -0.050942466

sequential/dense/BiasAdd/ReadVariableOp f4 [64]
00000000: bb07 553c f482 b63d f649 de3b 1861 e0bc
00000010: 96bc b33d 4a62 363d 1c2e 663d 325e 3d3c
00000020: 6d25 c5bc 5eba ed3c 6e39 72bd 22d9 44bd
00000030: 5e8e 0b3d 9277 8e3c bfed 6a3d d98b 123d
00000040: ebf7 afbc 3e16 bf3c 7b0e 573d 2f0b 74bc
00000050: d966 b1bb 00a9 783c 93bd c93b 3e60 9f3d
00000060: bacb a4bc 673e 6f3c 3195 103d 1a9e 57bd
00000070: 2a97 193d e90e 393d c455 6b3b b2f8 c03c
00000080: ae7e fa3b 152b cbbb 9c22 533c fddd 94bc
00000090: f602 023d 70de b13c 8a7e 27bc 38a8 8ebc
000000a0: 8e1a 3d3c e34a 4c3d 0098 113d 1560 9ebc
000000b0: a8a9 f53c c50b 0d3e d30c 71bd 08a6 30bd
000000c0: 0a67 313e 15af 853c d461 633d cb2f 8c3c
000000d0: 0e73 c03c 65c8 bc3c e588 9c3c cedb 063e
000000e0: ebfe 9fbc f38d d23c 4109 30bd 5b89 17bd
000000f0: ab9d 1abd 7900 aabc c8fe 2ebd 77e6 933d
0.013002331 0.08911696 0.006783719 -0.027390048 0.08776204 0.04452733 0.056196317 0.011558102
-0.024065698 0.02901953 -0.0591368 -0.048058636 0.03407132 0.017391 0.05735564 0.0357779
-0.021480521 0.023326036 0.052504044 -0.0148952445 -0.0054138717 0.0151770115 0.006156632 0.077820286
-0.020116676 0.01460228 0.03529853 -0.05264101 0.037497677 0.045180235 0.0035909275 0.023556087
0.007644496 -0.006200204 0.0128866695 -0.018172259 0.031741105 0.021712512 -0.01022304 -0.017414197
0.011541976 0.049876105 0.03554535 -0.019332925 0.029988125 0.13774021 -0.05885012 -0.04312709
0.17324463 0.016318837 0.055513218 0.017112633 0.023492362 0.023044774 0.019108245 0.13169786
-0.019530734 0.025702452 -0.042977575 -0.036996227 -0.03774802 -0.020752179 -0.042723447 0.07221692

sequential/dense_2/BiasAdd/ReadVariableOp f4 [3]
00000000: 92e8 9c3d 9e52 d73d 8999 11be
0.07661547 0.10513805 -0.14218725

sequential/dense_1/BiasAdd/ReadVariableOp f4 [32]
00000000: 527a 2c3c caaf 053d b0ad 993b 4607 de3d
00000010: 9317 203e 8f29 76bd 3d78 e7bd 0000 0000
00000020: 0ed0 4fbd ff78 c4bb 76bc 71bc 52df 40bc
00000030: 4588 42bc b813 49bd 6fdd 06bc f2ac 02bd
00000040: 40b1 9639 e3f3 c23b babd cf3d 96d2 113d
00000050: d659 0b3c 07cc d7bc cab9 46bc 58ac f13b
00000060: 3e4c cc3c a7dc 0b3b ccf2 05bd 499e 023d
00000070: e270 46bc dd1f bdbb 08e2 8c3d 6282 44bd
0.01052721 0.03263835 0.0046898946 0.10841231 0.15633993 -0.060098227 -0.113022305 0.0
-0.050735526 -0.005995869 -0.014754405 -0.011771994 -0.0118733095 -0.04909107 -0.008231505 -0.031903215
0.0002874229 0.0059494837 0.10143609 0.03560122 0.008505305 -0.026342405 -0.0121292565 0.0073752813
0.024938699 0.0021341236 -0.032702252 0.031889234 -0.012111874 -0.0057716207 0.068790495 -0.047975905

sequential/dense/MatMul i1 [64, 64] scale=0.0026156872 zero_point=0
00000000: 41a8 d0fb 01cf b64e cbc2 3b26 43fd dae3
00000010: fa49 def7 3111 4de4 d34e 27c7 0b2f c3c9
00000020: 27f6 003d bf2d 3fdd 36c8 05ee ae10 1f11
00000030: 31f5 e5b7 4fb5 023d 3b2a def5 3547 bcfc
00000040: 2566 e8eb f266 bf14 67c5 f5c0 3640 f2f5
00000050: 2dce cafb 16f1 f81a e53a fee0 14d3 2e16
00000060: c3cf d7e5 1814 41ef e7ad 9fed ef40 d62b
00000070: 0ef6 ce42 27b6 ddcf e718 cff4 c8c3 430a
00000080: 14f2 07f8 40ed 22da f322 ba06 0aeb f30f
00000090: 3712 39b4 02ae eb53 b93d 4029 483b bebd
000000a0: 19d9 e22f 53f6 0927 391f ef55 dbd2 cdec
000000b0: 3d42 d0dc 47c1 ccd0 ccf3 4df3 4f48 28d6
000000c0: 1ff2 b305 f1fb 0e37 07f8 2c44 b824 354e
000000d0: e72b 3f2d f13b 073e c644 d7aa ea03 e6e8
000000e0: d2d1 17b6 3747 e4f8 3ac4 27f3 c610 c2d8
000000f0: b527 ac45 ef37 4520 b2ad 1bd0 2e0b 270b
0.17001967 -0.23018047 -0.12555298 -0.013078436 0.0026156872 -0.12816867 -0.19356085 0.2040236
-0.13863142 -0.1621726 0.15432554 0.09939612 0.17525104 -0.007847061 -0.09939612 -0.07585493
-0.015694123 0.19094516 -0.08893336 -0.023541184 0.12816867 0.04446668 0.20140791 -0.073239245
-0.11770593 0.2040236 0.1020118 -0.14909416 0.028772559 0.1229373 -0.15955693 -0.1438628
0.1020118 -0.026156873 0.0 0.15955693 -0.17001967 0.11770593 0.16478829 -0.091549054
0.14124711 -0.14647849 0.013078436 -0.04708237 -0.21448635 0.041850995 0.0810863 0.04446668
0.12816867 -0.028772559 -0.070623554 -0.19094516 0.20663929 -0.19617654 0.0052313744 0.15955693
0.15432554 0.10985886 -0.08893336 -0.028772559 0.13863142 0.1857138 -0.17786673 -0.010462749
0.09678043 0.2668001 -0.06277649 -0.05492943 -0.036619622 0.2668001 -0.17001967 0.052313745
0.2694158 -0.15432554 -0.028772559 -0.16740398 0.14124711 0.16740398 -0.036619622 -0.028772559
0.11770593 -0.13078436 -0.14124711 -0.013078436 0.057545118 -0.03923531 -0.020925498 0.068007864
-0.070623554 0.15170985 -0.0052313744 -0.08370199 0.052313745 -0.11770593 0.12032161 0.057545118
-0.15955693 -0.12816867 -0.10724317 -0.070623554 0.06277649 0.052313745 0.17001967 -0.04446668
-0.06539218 -0.21710204 -0.25372165 -0.04969806 -0.04446668 0.16740398 -0.10985886 0.11247455
0.036619622 -0.026156873 -0.13078436 0.17263536 0.1020118 -0.19356085 -0.091549054 -0.12816867
-0.06539218 0.06277649 -0.12816867 -0.031388246 -0.14647849 -0.15955693 0.17525104 0.026156873
0.052313745 -0.036619622 0.018309811 -0.020925498 0.16740398 -0.04969806 0.08893336 -0.09939612
-0.034003932 0.08893336 -0.18309811 0.015694123 0.026156873 -0.05492943 -0.034003932 0.03923531
0.1438628 0.04708237 0.14909416 -0.19879223 0.0052313744 -0.21448635 -0.05492943 0.21710204
-0.1857138 0.15955693 0.16740398 0.10724317 0.18832947 0.15432554 -0.17263536 -0.17525104
0.06539218 -0.1020118 -0.07847062 0.1229373 0.21710204 -0.026156873 0.023541184 0.1020118
0.14909416 0.0810863 -0.04446668 0.22233342 -0.09678043 -0.12032161 -0.13340005 -0.052313745
0.15955693 0.17263536 -0.12555298 -0.09416474 0.1857138 -0.16478829 -0.13601573 -0.12555298
-0.13601573 -0.034003932 0.20140791 -0.034003932 0.20663929 0.18832947 0.10462749 -0.10985886
0.0810863 -0.036619622 -0.20140791 0.013078436 -0.03923531 -0.013078436 0.036619622 0.1438628
0.018309811 -0.020925498 0.115090236 0.17786673 -0.18832947 0.09416474 0.13863142 0.2040236
-0.06539218 0.11247455 0.16478829 0.11770593 -0.03923531 0.15432554 0.018309811 0.1621726
-0.15170985 0.17786673 -0.10724317 -0.2249491 -0.057545118 0.007847061 -0.068007864 -0.06277649
-0.12032161 -0.1229373 0.060160805 -0.19356085 0.1438628 0.1857138 -0.073239245 -0.020925498
0.15170985 -0.15694124 0.1020118 -0.034003932 -0.15170985 0.041850995 -0.1621726 -0.10462749
-0.19617654 0.1020118 -0.21971773 0.18048242 -0.04446668 0.1438628 0.18048242 0.08370199
-0.2040236 -0.21710204 0.070623554 -0.12555298 0.12032161 0.028772559 0.1020118 0.028772559

sequential/dense_1/MatMul i1 [32, 64] scale=0.0029794893 zero_point=0
00000000: 04e1 f5cf f40b 07df b82c c73e d32e cdce
00000010: 2717 5004 e10c 0eb4 b5dd e7fe eadf 36ef
00000020: 163f e63c 344a e41a f64c 1301 26d1 d61c
00000030: 552b e51e 4dae e4cd 36f9 e7b5 d250 0d08
00000040: cddf f1ed d10b 1fc9 29e4 2e20 0912 fb14
00000050: 0b42 e8e6 1d21 1dc4 13cd b314 f3e2 d85a
00000060: 45e1 1f52 0e00 34d3 db0e 1ac6 193e fb3d
00000070: 4e0a 00c5 3b2a e421 da3b 3c53 240b d9e9
00000080: c5df dabb 2d18 ccf6 c114 28f7 dcd7 eccc
00000090: 1f3b fccc 06b7 edf4 fe3e 6534 4e26 ce70
000000a0: cd28 18ae d643 d44b b21b 4e0d 0740 adef
000000b0: febb 53d7 b925 2ecf e951 b8a0 f9f2 2abb
000000c0: cb57 43b4 2813 d0e5 023b eb04 3718 fb4b
000000d0: 1b12 4db4 36ff 3232 4def f225 bf1c 3ed4
000000e0: 12ad c8dd e24b 42ce 264a fc0a 41f1 41ed
000000f0: e8d7 0d2e 4e4f d44e 110c e91f efcd 2707
0.011917957 -0.09236417 -0.03277438 -0.14599498 -0.035753872 0.03277438 0.020856425 -0.098323144
-0.21452323 0.13109753 -0.16983089 0.18472834 -0.13407701 0.1370565 -0.15195395 -0.14897446
0.11620008 0.06852825 0.23835914 0.011917957 -0.09236417 0.035753872 0.04171285 -0.22644119
-0.2234617 -0.104282126 -0.07448723 -0.0059589786 -0.06554876 -0.098323144 0.16089243 -0.05065132
0.06554876 0.18770783 -0.07746672 0.17876935 0.15493344 0.2204822 -0.0834257 0.07746672
-0.029794892 0.22644119 0.056610297 0.0029794893 0.113220595 -0.140036 -0.12513855 0.0834257
0.2532566 0.12811804 -0.08044621 0.089384675 0.22942068 -0.24431813 -0.0834257 -0.15195395
0.16089243 -0.020856425 -0.07448723 -0.2234617 -0.1370565 0.23835914 0.03873336 0.023835914
-0.15195395 -0.098323144 -0.044692338 -0.056610297 -0.140036 0.03277438 0.09236417 -0.16387191
0.122159064 -0.0834257 0.1370565 0.09534366 0.026815403 0.053630807 -0.014897446 0.059589785
0.03277438 0.19664629 -0.071507744 -0.07746672 0.08640519 0.098323144 0.08640519 -0.17876935
0.056610297 -0.15195395 -0.22942068 0.059589785 -0.03873336 -0.089384675 -0.11917957 0.26815403
0.20558476 -0.09236417 0.09236417 0.24431813 0.04171285 0.0 0.15493344 -0.13407701
-0.1102411 0.04171285 0.07746672 -0.17281038 0.07448723 0.18472834 -0.014897446 0.18174885
0.23240016 0.029794892 0.0 -0.17578986 0.17578986 0.12513855 -0.0834257 0.098323144
-0.113220595 0.17578986 0.17876935 0.24729761 0.10726161 0.03277438 -0.11620008 -0.06852825
-0.17578986 -0.098323144 -0.113220595 -0.20558476 0.13407701 0.071507744 -0.15493344 -0.029794892
-0.18770783 0.059589785 0.11917957 -0.026815403 -0.10726161 -0.122159064 -0.059589785 -0.15493344
0.09236417 0.17578986 -0.011917957 -0.15493344 0.017876936 -0.21750271 -0.056610297 -0.035753872
-0.0059589786 0.18472834 0.3009284 0.15493344 0.23240016 0.113220595 -0.14897446 0.3337028
-0.15195395 0.11917957 0.071507744 -0.24431813 -0.12513855 0.19962578 -0.13109753 0.2234617
-0.23240016 0.08044621 0.23240016 0.03873336 0.020856425 0.19068731 -0.24729761 -0.05065132
-0.0059589786 -0.20558476 0.24729761 -0.122159064 -0.21154374 0.1102411 0.1370565 -0.14599498
-0.06852825 0.24133863 -0.21452323 -0.28603098 -0.020856425 -0.04171285 0.12513855 -0.20558476
-0.15791292 0.25921556 0.19962578 -0.22644119 0.11917957 0.056610297 -0.14301549 -0.08044621
0.0059589786 0.17578986 -0.062569275 0.011917957 0.16387191 0.071507744 -0.014897446 0.2234617
0.08044621 0.053630807 0.22942068 -0.22644119 0.16089243 -0.0029794893 0.14897446 0.14897446
0.22942068 -0.05065132 -0.04171285 0.1102411 -0.1936668 0.0834257 0.18472834 -0.13109753
0.053630807 -0.24729761 -0.1668514 -0.104282126 -0.089384675 0.2234617 0.19664629 -0.14897446
0.113220595 0.2204822 -0.011917957 0.029794892 0.1936668 -0.044692338 0.1936668 -0.056610297
-0.071507744 -0.122159064 0.03873336 0.1370565 0.23240016 0.23537965 -0.13109753 0.23240016
0.05065132 0.035753872 -0.06852825 0.09236417 -0.05065132 -0.15195395 0.11620008 0.020856425

sequential/lstm/while/lstm_cell/split_1 f4 [64]
00000000: e1e1 85bc cc41 20bc 9d80 0bbc 84ad abbb
00000010: 5e0e a8bb b12b c83c f9de 683b 6088 083c
00000020: b1af a63b ce01 c2bc 8069 5fbc fd45 95bc
00000030: 33a7 993c e6c0 073c f99e 5abc 9c0a ce3c
00000040: ad4a 6e3c 73da a4bc 7b6e 8ebc e816 35bb
00000050: d2ae 443d a444 0bbc b799 fcbc 7c01 193b
00000060: 6466 01bb 7da0 0f3c 6aca d8bc b669 14bc
00000070: 8913 b43b b378 77bc 4f3c 90bc faa1 0b3a
00000080: 4708 d1bb 2a13 20bb 7af3 4abc 66e8 aebc
00000090: 5306 fe3c f2e5 b9ba d252 8f3c 8a3f c1b9
000000a0: e758 87bc 9edb 42bc 41ab 22bb 5269 8fbc
000000b0: 0e29 5939 a820 45bc 6684 ea3b 60da 1ebd
000000c0: f902 243d 3101 efbb 34a5 ccbb c1f4 eb3a
000000d0: 2383 053d 4aa1 bfbb dc05 87bb 989d 4d3a
000000e0: ea9e aabc f5c0 2fbc ba19 c33c 63af 31bc
000000f0: ac52 e13b 36c5 3ebc 4982 31bd 174a 483b
-0.016343059 -0.009781312 -0.0085145505 -0.0052391905 -0.005128666 0.024434896 0.0035533293 0.008333296
0.005086862 -0.023682501 -0.013635993 -0.01822185 0.018756485 0.008285737 -0.013343566 0.025151543
0.014544171 -0.020123696 -0.017386666 -0.0027632061 0.048018284 -0.008500252 -0.030835016 0.0023346832
-0.0019744867 0.008766291 -0.026463706 -0.009058407 0.005495493 -0.0151044605 -0.017606882 0.00053265656
-0.0063791606 -0.0024425485 -0.012387151 -0.02135105 0.031008875 -0.0014182909 0.017495546 -0.0003685917
-0.016521884 -0.011893181 -0.0024821314 -0.017506275 0.00020710027 -0.012031712 0.0071568964 -0.038782477
0.040041897 -0.007293843 -0.0062452797 0.001800202 0.032595765 -0.0058480846 -0.0041205715 0.00078436127
-0.02082773 -0.010727157 0.023815978 -0.010845038 0.0068763103 -0.011643698 -0.04333714 0.003056174

sequential/lstm/while/lstm_cell/split_11 f4 [64]
00000000: 364f 5f3c 7bd8 12bc 3293 54bc 8e50 9dbc
00000010: ad4a b2bc 1eb1 443b 353a afbc 3114 bebc
00000020: a64e 9739 b998 acbc 763e 51bc 5568 22bb
00000030: 63cf f8ba 8397 eabb 55a8 aabc 84fa 3a3c
00000040: a2ff beba 18ba f9bc d09d 9bbc 9440 41bc
00000050: 1b68 cabb 95ad 4abc bacb 04bd a602 35bc
00000060: 72ef cfbc 76d6 3d3b 20d1 55bc 7e23 8abc
00000070: d947 95bb 4723 163c 0739 0ebc 5bf7 58bc
00000080: e617 36bb c0e5 a935 2093 5abc 5f94 f6ba
00000090: e638 143d 1ca6 35bc b2f1 3cbc 9e32 b7bc
000000a0: af59 6dbc 2dac 25bc 7b98 fdbc 1271 43bc
000000b0: a8d7 23bc f2c3 9cbc 5a1b f5bb 8d4c b5bc
000000c0: 7caa 4a3b ca65 60bc 931d 11bc c9c3 aebc
000000d0: f093 103d 31b5 7d3a 1edf 51bc e38d 22bc
000000e0: 9b91 2abc ecdb babc 02e4 b73a dfbc cebc
000000f0: f63b b6bb 24db 08bc 0376 12bd 9fe2 9ebc
0.013629725 -0.008962746 -0.012974547 -0.01920345 -0.021764124 0.0030012797 -0.02139006 -0.023202987
0.00028859562 -0.021068918 -0.0127712395 -0.0024781425 -0.0018982704 -0.007159175 -0.02083222 0.011412267
-0.0014572034 -0.030484244 -0.01899615 -0.011795182 -0.006176961 -0.012370487 -0.03242085 -0.011047995
-0.025382731 0.002896694 -0.013050348 -0.016862627 -0.004555684 0.009163684 -0.008680589 -0.013242568
-0.002778524 1.2658347e-06 -0.013340741 -0.0018812529 0.036187075 -0.011086967 -0.011532234 -0.022363003
-0.014486714 -0.010111851 -0.030956497 -0.0119288135 -0.010000147 -0.019136403 -0.007480067 -0.022131229
0.003092437 -0.013696143 -0.008857149 -0.021333592 0.035297334 0.00096781837 -0.012809543 -0.009921524
-0.010410692 -0.022809945 0.0014029744 -0.025236545 -0.005561347 -0.008353028 -0.035757076 -0.01939517

sequential/lstm/while/lstm_cell/split_12 f4 [64]
00000000: 3e19 7a3f 3ef9 7c3f 8f80 7e3f 8d5f 7e3f
00000010: 41ff 7d3f 088b 833f e784 803f 7eaf 7f3f
00000020: f015 813f 5dad 793f 411b 7d3f a5e3 7f3f
00000030: 3a15 813f a91e 803f 9a8e 7c3f b9c6 833f
00000040: 81bb 843f e9c4 7c3f bc32 7e3f e943 803f
00000050: 7a6a 843f 65e2 7d3f 9a44 7f3f 3136 803f
00000060: 573e 803f 5be3 803f 814d 7b3f 66e9 7c3f
00000070: 0fbb 813f 98d3 7c3f 4a10 7c3f d68f 7f3f
00000080: f0ba 7f3f 4709 803f 9476 7e3f ddf9 7d3f
00000090: 887d 843f b609 823f f4bd 803f ce6b 803f
000000a0: 85cb 7d3f f64b 7e3f 7ba0 7e3f a107 7b3f
000000b0: 3a90 7d3f 57c2 7d3f e37a 7e3f a796 793f
000000c0: d315 853f 135e 7d3f 0a49 7e3f 3b92 7d3f
000000d0: 84fe 823f d618 7f3f f88c 7e3f af4d 813f
000000e0: a462 7c3f b095 803f 4c0b 833f 689e 7f3f
000000f0: 5da7 7e3f 4f72 7e3f 29b5 763f 99ea 7f3f
0.97694767 0.98817813 0.99414915 0.9936455 0.9921761 1.0276804 1.0040559 0.99877155
1.008482 0.97530156 0.9886971 0.99956733 1.0084603 1.0009357 0.9865509 1.029502
1.0369722 0.9873796 0.99296165 1.0020725 1.0344994 0.99173576 0.9971405 1.0016538
1.0019025 1.0069383 0.98165137 0.9879364 1.0135211 0.98760366 0.98462355 0.9982885
0.9989462 1.0002831 0.99399686 0.99209386 1.0350809 1.0159214 1.0057969 1.0032899
0.9913867 0.9933466 0.99463624 0.98058516 0.990482 0.99124664 0.9940626 0.974955
1.0397285 0.9897167 0.993302 0.99051255 1.0233922 0.9964727 0.9943385 1.0101832
0.98588014 1.0045681 1.0237823 0.99851084 0.99474126 0.9939317 0.9637018 0.9996734

sequential/lstm/while/lstm_cell/split_13 f4 [64]
00000000: ca85 debc 4d96 f9bb e591 16bc 6d8f f1bb
00000010: 12eb 87bc 7f49 db3c 2c8d 183b bd2a ee3b
00000020: 56db 943b b15c eebc 5cce 38bc 733b 72bc
00000030: b103 9e3b e199 9b3b 294c 69bc 6304 043d
00000040: 1ed7 a33c 1dc1 6dbc 3e96 cfbb 21b3 f4ba
00000050: 7afb 1d3d 32c5 59bc 8e88 93bc f373 8e3b
00000060: d401 64bc 2c91 f43b c550 e0bc 1c89 03bc
00000070: 5ffd 883c 255e 68bc b897 f5bb f719 d5bb
00000080: 933a a7bb bc41 553b b5d3 aebb fa50 c2bc
00000090: b7f7 f23c 4b15 f1bb a2ef a63b 3a95 c63a
000000a0: fb44 59bc c388 17bc 5a8c 92bb 3698 91bc
000000b0: bcff ffba b70b 18bc bef0 0f3b 8393 fabc
000000c0: 1d05 1a3d 836e 71bc b426 db3b af13 54bc
000000d0: 3752 023d d1ea f9bb 50e4 31bc 3729 093b
000000e0: 7a91 9fbc 3929 49bb 671d c03c cbb9 09bc
000000f0: 7cab acbb 86e1 b0bc 5d68 36bd bbe9 c53a
-0.027163405 -0.007616794 -0.009190057 -0.007371834 -0.016591582 0.026768444 0.0023277504 0.0072682784
0.0045427484 -0.029096933 -0.011279669 -0.014784682 0.0048222174 0.0047485684 -0.014239349 0.032230746
0.020000037 -0.014511374 -0.006335049 -0.0018669107 0.038569905 -0.013291644 -0.01800945 0.0043473183
-0.0139164515 0.007463595 -0.027382264 -0.008028295 0.01672238 -0.014182602 -0.007494893 -0.0065033394
-0.005103418 0.0032540401 -0.005335296 -0.023720253 0.029659135 -0.0073572746 0.0050944844 0.0015150674
-0.013261075 -0.009248915 -0.0044722976 -0.017772775 -0.0019531171 -0.009280137 0.0021963562 -0.030587917
0.037602533 -0.014735821 0.0066879634 -0.012944146 0.031816687 -0.0076268693 -0.010857657 0.0020929107
-0.019478548 -0.0030694737 0.02345152 -0.008406113 -0.005269466 -0.021591913 -0.044533122 0.0015099564

sequential/lstm/while/lstm_cell/MatMul_41 i1 [64, 64] scale=0.002022072 zero_point=0
00000000: fc04 ebfc 14a9 032a de1f c515 cee9 261b
00000010: e9e8 e423 27f7 fcdd f6e3 0402 3c0a e63d
00000020: 15d3 1107 37ff d7dd 080d 2028 2d34 eb13
00000030: f8e0 d43a 0c02 e813 0ae2 e2f3 e613 e9e0
00000040: 0e1e ec1e 050b ddf3 1fd5 b315 f20a f0f5
00000050: fee7 2e02 31fd 0e0f ecd8 03f4 d20c 15f9
00000060: 0b25 06ed 0c28 dcf4 1aeb 271c 202d eeee
00000070: 02e1 d9ed 2a32 edd1 19ec fef5 0cef 26ed
00000080: 0428 e2e3 3bf8 eee2 dce0 08e4 13f7 1512
00000090: e4fe 070e e503 13ca cf00 100b e6d4 f62d
000000a0: 23dd 0401 e907 ef29 b504 eae8 1422 13ed
000000b0: 0400 2301 e8d2 ee0c d2fd fbee c419 131e
000000c0: 17d2 f3d1 15f0 e6d6 e412 e2fd d6f4 fbe3
000000d0: db2a d61c dd07 e42c d3f9 b418 6316 bcd6
000000e0: faf3 eee5 e5f3 e5e8 0ad0 14cf d2e9 fb87
000000f0: 2003 bffb d2f9 c9ee f7fd 04ec f40e 0c3e
-0.008088288 0.008088288 -0.04246351 -0.008088288 0.04044144 -0.17592026 0.006066216 0.08492702
-0.06875045 0.06268423 -0.11930224 0.04246351 -0.1011036 -0.046507657 0.07683873 0.054595944
-0.046507657 -0.04852973 -0.056618016 0.07077252 0.078860804 -0.018198648 -0.008088288 -0.07077252
-0.02022072 -0.05864009 0.008088288 0.004044144 0.121324316 0.02022072 -0.05257387 0.12334639
0.04246351 -0.09099324 0.034375224 0.014154504 0.11121396 -0.002022072 -0.08290495 -0.07077252
0.016176576 0.026286935 0.0647063 0.08088288 0.09099324 0.10514774 -0.04246351 0.038419366
-0.016176576 -0.0647063 -0.08897117 0.11728018 0.024264865 0.004044144 -0.04852973 0.038419366
0.02022072 -0.060662158 -0.060662158 -0.026286935 -0.05257387 0.038419366 -0.046507657 -0.0647063
0.028309008 0.060662158 -0.04044144 0.060662158 0.01011036 0.022242792 -0.07077252 -0.026286935
0.06268423 -0.086949095 -0.15569954 0.04246351 -0.028309008 0.02022072 -0.03235315 -0.022242792
-0.004044144 -0.0505518 0.09301531 0.004044144 0.09908152 -0.006066216 0.028309008 0.030331079
-0.04044144 -0.08088288 0.006066216 -0.024264865 -0.09301531 0.024264865 0.04246351 -0.014154504
0.022242792 0.07481667 0.012132432 -0.038419366 0.024264865 0.08088288 -0.072794594 -0.024264865
0.05257387 -0.04246351 0.078860804 0.056618016 0.0647063 0.09099324 -0.036397297 -0.036397297
0.004044144 -0.06268423 -0.078860804 -0.038419366 0.08492702 0.1011036 -0.038419366 -0.095037386
0.0505518 -0.04044144 -0.004044144 -0.022242792 0.024264865 -0.034375224 0.07683873 -0.038419366
0.008088288 0.08088288 -0.060662158 -0.05864009 0.11930224 -0.016176576 -0.036397297 -0.060662158
-0.072794594 -0.0647063 0.016176576 -0.056618016 0.038419366 -0.018198648 0.04246351 0.036397297
-0.056618016 -0.004044144 0.014154504 0.028309008 -0.054595944 0.006066216 0.038419366 -0.10919189
-0.09908152 0.0 0.03235315 0.022242792 -0.05257387 -0.08897117 -0.02022072 0.09099324
0.07077252 -0.07077252 0.008088288 0.002022072 -0.046507657 0.014154504 -0.034375224 0.08290495
-0.15165539 0.008088288 -0.044485584 -0.04852973 0.04044144 0.06875045 0.038419366 -0.038419366
0.008088288 0.0 0.07077252 0.002022072 -0.04852973 -0.09301531 -0.036397297 0.024264865
-0.09301531 -0.006066216 -0.01011036 -0.036397297 -0.121324316 0.0505518 0.038419366 0.060662158
0.046507657 -0.09301531 -0.026286935 -0.095037386 0.04246351 -0.03235315 -0.05257387 -0.08492702
-0.056618016 0.036397297 -0.060662158 -0.006066216 -0.08492702 -0.024264865 -0.01011036 -0.05864009
-0.07481667 0.08492702 -0.08492702 0.056618016 -0.07077252 0.014154504 -0.056618016 0.08897117
-0.09099324 -0.014154504 -0.15367746 0.04852973 0.20018512 0.044485584 -0.1375009 -0.08492702
-0.012132432 -0.026286935 -0.036397297 -0.054595944 -0.054595944 -0.026286935 -0.054595944 -0.04852973
0.02022072 -0.09705946 0.04044144 -0.09908152 -0.09301531 -0.046507657 -0.01011036 -0.2446707
0.0647063 0.006066216 -0.13143468 -0.01011036 -0.09301531 -0.014154504 -0.11121396 -0.036397297
-0.018198648 -0.006066216 0.008088288 -0.04044144 -0.024264865 0.028309008 0.024264865 0.12536846

sequential/lstm/while/lstm_cell/MatMul_5 i1 [64, 64] scale=0.001891773 zero_point=0
00000000: 2926 1412 1d05 cfca e4d2 01da 0d06 ccd0
00000010: 18f0 e500 fa90 01d9 042a 1aff f6fd cc18
00000020: ec12 f0c7 c3f2 f3fd c8c8 d313 eb34 f00d
00000030: f2e2 2b20 3bec d5e6 0cf5 f616 06e3 41f0
00000040: d9da 00ed f40c e8e2 1cc3 15fb 0ef4 de30
00000050: d7f5 00f3 e123 0cd3 0f19 01fe 0019 f00a
00000060: 30f5 e71b 052e dde9 c90d b329 04e3 ce15
00000070: e81c 090e f4ef f9fc ebf1 2014 0ff8 d8c1
00000080: 1804 0d05 f5cd fff3 0526 20dd f8fd 07e8
00000090: e1f0 fcfc f1f7 07d7 11ca 1800 1ef9 00ba
000000a0: 2110 27c9 0cfa 0ade 1e20 d5eb d4ec 0a48
000000b0: ef18 2ce3 2308 e6f8 0f16 27ae d3f5 05f0
000000c0: eefd 0c18 0733 fa09 0f36 150b dff6 ddf6
000000d0: 24eb fa2e ede9 1509 2042 0bc8 f836 dd0e
000000e0: e1c2 0bee d205 fc04 02fd f231 ef55 14ee
000000f0: 1ff5 f017 d326 2327 ea3b 14f3 4424 e809
0.07756269 0.071887374 0.03783546 0.034051914 0.054861415 0.009458865 -0.092696875 -0.10215574
-0.052969642 -0.08702156 0.001891773 -0.071887374 0.024593048 0.011350637 -0.09837219 -0.0908051
0.04540255 -0.030268367 -0.05107787 0.0 -0.011350637 -0.21187857 0.001891773 -0.07377914
0.007567092 0.07945447 0.049186096 -0.001891773 -0.01891773 -0.0056753187 -0.09837219 0.04540255
-0.03783546 0.034051914 -0.030268367 -0.10783106 -0.11539815 -0.026484821 -0.024593048 -0.0056753187
-0.105939284 -0.105939284 -0.08512978 0.035943687 -0.039727233 0.09837219 -0.030268367 0.024593048
-0.026484821 -0.05675319 0.081346236 0.060536735 0.11161461 -0.03783546 -0.081346236 -0.049186096
0.022701275 -0.020809503 -0.01891773 0.041619007 0.011350637 -0.054861415 0.12296524 -0.030268367
-0.07377914 -0.071887374 0.0 -0.035943687 -0.022701275 0.022701275 -0.04540255 -0.05675319
0.052969642 -0.11539815 0.039727233 -0.009458865 0.026484821 -0.022701275 -0.06432028 0.0908051
-0.07756269 -0.020809503 0.0 -0.024593048 -0.05864496 0.06621205 0.022701275 -0.08512978
0.028376594 0.047294322 0.001891773 -0.003783546 0.0 0.047294322 -0.030268367 0.01891773
0.0908051 -0.020809503 -0.047294322 0.05107787 0.009458865 0.08702156 -0.06621205 -0.04351078
-0.104047514 0.024593048 -0.14566652 0.07756269 0.007567092 -0.054861415 -0.094588645 0.039727233
-0.04540255 0.052969642 0.017025957 0.026484821 -0.022701275 -0.03216014 -0.0132424105 -0.007567092
-0.039727233 -0.028376594 0.060536735 0.03783546 0.028376594 -0.015134184 -0.07567092 -0.1191817
0.04540255 0.007567092 0.024593048 0.009458865 -0.020809503 -0.09648042 -0.001891773 -0.024593048
0.009458865 0.071887374 0.060536735 -0.06621205 -0.015134184 -0.0056753187 0.0132424105 -0.04540255
-0.05864496 -0.030268367 -0.007567092 -0.007567092 -0.028376594 -0.017025957 0.0132424105 -0.07756269
0.03216014 -0.10215574 0.04540255 0.0 0.05675319 -0.0132424105 0.0 -0.1324241
0.062428508 0.030268367 0.07377914 -0.104047514 0.022701275 -0.011350637 0.01891773 -0.06432028
0.05675319 0.060536735 -0.081346236 -0.039727233 -0.08323801 -0.03783546 0.01891773 0.13620766
-0.03216014 0.04540255 0.08323801 -0.054861415 0.06621205 0.015134184 -0.049186096 -0.015134184
0.028376594 0.041619007 0.07377914 -0.15512538 -0.08512978 -0.020809503 0.009458865 -0.030268367
-0.034051914 -0.0056753187 0.022701275 0.04540255 0.0132424105 0.09648042 -0.011350637 0.017025957
0.028376594 0.10215574 0.039727233 0.020809503 -0.062428508 -0.01891773 -0.06621205 -0.01891773
0.06810383 -0.039727233 -0.011350637 0.08702156 -0.035943687 -0.04351078 0.039727233 0.017025957
0.060536735 0.124857016 0.020809503 -0.105939284 -0.015134184 0.10215574 -0.06621205 0.026484821
-0.05864496 -0.11728992 0.020809503 -0.034051914 -0.08702156 0.009458865 -0.007567092 0.007567092
0.003783546 -0.0056753187 -0.026484821 0.092696875 -0.03216014 0.1608007 0.03783546 -0.034051914
0.05864496 -0.020809503 -0.030268367 0.04351078 -0.08512978 0.071887374 0.06621205 0.07377914
-0.041619007 0.11161461 0.03783546 -0.024593048 0.12864056 0.06810383 -0.04540255 0.017025957

sequential/lstm/while/lstm_cell/MatMul_6 i1 [64, 64] scale=0.002005255 zero_point=0
00000000: d50d 03e0 e2f3 ebfb fdf3 bc1d 0204 1a16
00000010: 37bd 1e0b 20e5 1522 25ea eee5 022b f4d8
00000020: f2e0 3206 fd08 f7ec f618 c901 d2d7 0ff1
00000030: e0fc 11c2 1507 ec1d 4811 fd08 ff1d e618
00000040: cdd0 e2e2 0207 e511 fd00 f4ed e006 eef5
00000050: 0900 0201 e3f9 ef06 c6ef 0308 e8f2 f3e3
00000060: e3da cef9 e900 efec e74f d804 0fe5 28d4
00000070: 2bfc e3f8 2ce4 3301 d830 f125 fce4 eff4
00000080: f2ef 04ef 11eb 0ec4 03ad ee40 ae3f 0ae3
00000090: fe1b 22e8 c004 a8c4 e6e8 f9f2 f2fc 10fb
000000a0: 43db 25ed f5c4 1831 e235 baff 070b fcf0
000000b0: f9d1 ec0f 140f ff0c 03f6 12fe 3308 eed7
000000c0: ad1c e92a 26e4 f2d4 f729 21ec 2142 0bbb
000000d0: eaeb 09ca f10f f521 fd08 47d9 0f19 c7cd
000000e0: ca0c 04de 08fe 15cf caf3 1530 1eda d703
000000f0: 01fc f8f2 080d f3b5 00e1 06eb d701 1c0d
-0.08622597 0.026068317 0.0060157655 -0.06416816 -0.060157653 -0.026068317 -0.042110357 -0.010026275
-0.0060157655 -0.026068317 -0.13635735 0.058152396 0.00401051 0.00802102 0.052136634 0.04411561
0.11028903 -0.13435209 0.060157653 0.022057805 0.06416816 -0.054141887 0.042110357 0.068178676
0.07419444 -0.04411561 -0.03609459 -0.054141887 0.00401051 0.08622597 -0.024063062 -0.0802102
-0.028073572 -0.06416816 0.10026275 0.012031531 -0.0060157655 0.01604204 -0.018047296 -0.0401051
-0.02005255 0.048126124 -0.11028903 0.002005255 -0.092241734 -0.08221546 0.030078826 -0.030078826
-0.06416816 -0.00802102 0.034089338 -0.12432581 0.042110357 0.014036786 -0.0401051 0.058152396
0.14437836 0.034089338 -0.0060157655 0.01604204 -0.002005255 0.058152396 -0.052136634 0.048126124
-0.10226801 -0.09625225 -0.060157653 -0.060157653 0.00401051 0.014036786 -0.054141887 0.034089338
-0.0060157655 0.0 -0.024063062 -0.038099848 -0.06416816 0.012031531 -0.03609459 -0.022057805
0.018047296 0.0 0.00401051 0.002005255 -0.058152396 -0.014036786 -0.034089338 0.012031531
-0.11630479 -0.034089338 0.0060157655 0.01604204 -0.048126124 -0.028073572 -0.026068317 -0.058152396
-0.058152396 -0.076199695 -0.10026275 -0.014036786 -0.046120867 0.0 -0.034089338 -0.0401051
-0.050131377 0.15841515 -0.0802102 0.00802102 0.030078826 -0.054141887 0.0802102 -0.08823122
0.08622597 -0.00802102 -0.058152396 -0.01604204 0.08823122 -0.056147143 0.10226801 0.002005255
-0.0802102 0.09625225 -0.030078826 0.07419444 -0.00802102 -0.056147143 -0.034089338 -0.024063062
-0.028073572 -0.034089338 0.00802102 -0.034089338 0.034089338 -0.042110357 0.028073572 -0.120315306
0.0060157655 -0.16643617 -0.03609459 0.12833633 -0.16443092 0.12633108 0.02005255 -0.058152396
-0.00401051 0.054141887 0.068178676 -0.048126124 -0.12833633 0.00802102 -0.17646244 -0.120315306
-0.052136634 -0.048126124 -0.014036786 -0.028073572 -0.028073572 -0.00802102 0.03208408 -0.010026275
0.13435209 -0.07419444 0.07419444 -0.038099848 -0.022057805 -0.120315306 0.048126124 0.0982575
-0.060157653 0.10627852 -0.14036785 -0.002005255 0.014036786 0.022057805 -0.00802102 -0.03208408
-0.014036786 -0.09424699 -0.0401051 0.030078826 0.0401051 0.030078826 -0.002005255 0.024063062
0.0060157655 -0.02005255 0.03609459 -0.00401051 0.10226801 0.01604204 -0.03609459 -0.08221546
-0.16643617 0.056147143 -0.046120867 0.084220715 0.076199695 -0.056147143 -0.028073572 -0.08823122
-0.018047296 0.08221546 0.06617342 -0.0401051 0.06617342 0.13234684 0.022057805 -0.1383626
-0.04411561 -0.042110357 0.018047296 -0.10828377 -0.030078826 0.030078826 -0.022057805 0.06617342
-0.0060157655 0.01604204 0.14237311 -0.078204945 0.030078826 0.050131377 -0.11429954 -0.10226801
-0.10828377 0.024063062 0.00802102 -0.068178676 0.01604204 -0.00401051 0.042110357 -0.0982575
-0.10828377 -0.026068317 0.042110357 0.09625225 0.060157653 -0.076199695 -0.08221546 0.0060157655
0.002005255 -0.00802102 -0.01604204 -0.028073572 0.01604204 0.026068317 -0.026068317 -0.15039413
0.0 -0.062162906 0.012031531 -0.042110357 -0.08221546 0.002005255 0.056147143 0.026068317

sequential/lstm/while/lstm_cell/MatMul_7 i1 [64, 64] scale=0.0019150178 zero_point=0
00000000: ed34 c808 e500 2ec6 34a9 1510 f1e6 e4fb
00000010: f5d5 11e7 d2e1 03f6 02f9 d811 4504 fb04
00000020: 14db f909 2fe4 e8f9 e1f7 fd06 fc2e decd
00000030: 1c20 25db 16fa f4de 1ee9 18dd 2204 f60e
00000040: c31f eae5 071c f727 060a c8fd c01c f20b
00000050: de18 ce0b e1e9 fbec 17f4 c806 0005 eac7
00000060: 153b 0ddf d315 f0f2 ecdf 08d9 0fea d402
00000070: e331 ed01 d9f0 14fb 0a09 f204 12fb f507
00000080: e810 f9ee 22d6 17ef fac5 0df7 1912 09e7
00000090: f5ee f325 d912 000b de26 fdfa dd1d 01e7
000000a0: 23d6 e808 d6e6 e61b fb28 f913 e7df ef2f
000000b0: f0dd d60a d221 e42c eaf3 dcf9 f2f3 50f2
000000c0: 2ff1 13ed 040b dede 08d8 f610 1a18 0d3b
000000d0: 0012 18c8 e531 dd0e ddfc 0701 19e6 11ec
000000e0: eb03 f2c4 e81b bbd4 f4e9 e4d6 eceb 27e4
000000f0: 2dcb fbd3 fa45 13cc fafe fce8 2a21 ffee
-0.03638534 0.09958093 -0.107241 0.015320143 -0.051705483 0.0 0.08809082 -0.111071035
0.09958093 -0.16660655 0.040215373 0.030640285 -0.028725268 -0.049790464 -0.0536205 -0.009575089
-0.021065196 -0.08234577 0.032555304 -0.047875445 -0.08809082 -0.059365552 0.0057450533 -0.019150179
0.0038300357 -0.013405125 -0.076600716 0.032555304 0.13213623 0.0076600714 -0.009575089 0.0076600714
0.038300358 -0.07085566 -0.013405125 0.01723516 0.09000584 -0.0536205 -0.045960426 -0.013405125
-0.059365552 -0.01723516 -0.0057450533 0.011490107 -0.0076600714 0.08809082 -0.06511061 -0.09766591
0.0536205 0.06128057 0.07085566 -0.07085566 0.042130392 -0.011490107 -0.022980213 -0.06511061
0.057450537 -0.04404541 0.045960426 -0.067025624 0.06511061 0.0076600714 -0.019150179 0.02681025
-0.11681609 0.059365552 -0.042130392 -0.051705483 0.013405125 0.0536205 -0.01723516 0.07468569
0.011490107 0.019150179 -0.107241 -0.0057450533 -0.12256114 0.0536205 -0.02681025 0.021065196
-0.06511061 0.045960426 -0.09575089 0.021065196 -0.059365552 -0.04404541 -0.009575089 -0.038300358
0.04404541 -0.022980213 -0.107241 0.011490107 0.0 0.009575089 -0.042130392 -0.10915602
0.040215373 0.11298605 0.024895232 -0.063195586 -0.0861758 0.040215373 -0.030640285 -0.02681025
-0.038300358 -0.063195586 0.015320143 -0.07468569 0.028725268 -0.042130392 -0.084260784 0.0038300357
-0.055535518 0.093835875 -0.03638534 0.0019150178 -0.07468569 -0.030640285 0.038300358 -0.009575089
0.019150179 0.01723516 -0.02681025 0.0076600714 0.03447032 -0.009575089 -0.021065196 0.013405125
-0.045960426 0.030640285 -0.013405125 -0.03447032 0.06511061 -0.080430746 0.04404541 -0.032555304
-0.011490107 -0.11298605 0.024895232 -0.01723516 0.047875445 0.03447032 0.01723516 -0.047875445
-0.021065196 -0.03447032 -0.024895232 0.07085566 -0.07468569 0.03447032 0.0 0.021065196
-0.06511061 0.07277068 -0.0057450533 -0.011490107 -0.067025624 0.055535518 0.0019150178 -0.047875445
0.067025624 -0.080430746 -0.045960426 0.015320143 -0.080430746 -0.049790464 -0.049790464 0.051705483
-0.009575089 0.076600716 -0.013405125 0.03638534 -0.047875445 -0.063195586 -0.032555304 0.09000584
-0.030640285 -0.067025624 -0.080430746 0.019150179 -0.08809082 0.063195586 -0.0536205 0.084260784
-0.042130392 -0.024895232 -0.06894064 -0.013405125 -0.02681025 -0.024895232 0.15320143 -0.02681025
0.09000584 -0.028725268 0.03638534 -0.03638534 0.0076600714 0.021065196 -0.06511061 -0.06511061
0.015320143 -0.076600716 -0.019150179 0.030640285 0.049790464 0.045960426 0.024895232 0.11298605
0.0 0.03447032 0.045960426 -0.107241 -0.051705483 0.093835875 -0.067025624 0.02681025
-0.067025624 -0.0076600714 0.013405125 0.0019150178 0.047875445 -0.049790464 0.032555304 -0.038300358
-0.040215373 0.0057450533 -0.02681025 -0.11490107 -0.045960426 0.051705483 -0.13213623 -0.084260784
-0.022980213 -0.04404541 -0.0536205 -0.080430746 -0.038300358 -0.040215373 0.07468569 -0.0536205
0.0861758 -0.101495944 -0.009575089 -0.0861758 -0.011490107 0.13213623 0.03638534 -0.09958093
-0.011490107 -0.0038300357 -0.0076600714 -0.045960426 0.080430746 0.063195586 -0.0019150178 -0.03447032

sequential/lstm/while/lstm_cell/MatMul i1 [64, 126] scale=0.0013042218 zero_point=0
00000000: b11b c2ea e03e a008 f8ee 21e6 cd99 5d37
00000010: ad2b e738 2153 e834 f3cf 4018 2165 de9d
00000020: 621b 4f57 b9f7 3fa3 d8c4 0a21 ae48 53b1
00000030: a810 cc50 06c0 c906 4a45 35db e9d8 4241
00000040: abe0 0602 cf06 0eee 31d6 f0c9 a6e3 bf45
00000050: b8e7 26be 33e0 bd55 ee26 ccc6 fe2e d0bd
00000060: 59f8 bfc6 ae14 b89d 23e7 9ce5 52e8 b623
00000070: 0ebf e4bc 1c57 dad2 c91c 1ead c45a f248
00000080: 4e32 315e fdaa 3c15 adef 18d1 5ce3 d33b
00000090: 3dc5 d105 2100 a9a3 b1e5 c94d b5ae 4f55
000000a0: bbf5 9e15 49a0 f0e5 b337 1db4 511d 10ed
000000b0: 56ae aace 55fc 0e03 ea61 39d0 4cc3 d7a6
000000c0: cf48 0ac1 543f 3843 db17 9fc5 51be 461c
000000d0: 1d05 fa21 bccf f2d8 09ae 5c29 3abc 02a5
000000e0: 2714 b1d0 a707 59ae 0a01 1513 3b1b c4e8
000000f0: 250b d708 344c e9b4 f61a da0a 4512 fe2e
-0.10303352 0.03521399 -0.080861755 -0.028692879 -0.041735098 0.080861755 -0.1252053 0.010433774
-0.010433774 -0.023475993 0.04303932 -0.033909768 -0.06651531 -0.13433485 0.12129263 0.0717322
-0.10825041 0.056081537 -0.032605544 0.07303642 0.04303932 0.10825041 -0.031301323 0.067819536
-0.016954884 -0.06390687 0.083470196 0.031301323 0.04303932 0.1317264 -0.044343542 -0.12911797
0.12781374 0.03521399 0.10303352 0.1134673 -0.09259975 -0.011737997 0.08216597 -0.12129263
-0.052168872 -0.07825331 0.013042218 0.04303932 -0.106946185 0.09390397 0.10825041 -0.10303352
-0.114771515 0.020867549 -0.067819536 0.104337744 0.007825331 -0.083470196 -0.0717322 0.007825331
0.096512415 0.0899913 0.06912375 -0.048256207 -0.029997101 -0.052168872 0.08607864 0.08477442
-0.11085885 -0.041735098 0.007825331 0.0026084436 -0.06390687 0.007825331 0.018259104 -0.023475993
0.06390687 -0.054777317 -0.020867549 -0.0717322 -0.11737996 -0.037822433 -0.08477442 0.0899913
-0.09390397 -0.032605544 0.049560428 -0.08607864 0.06651531 -0.041735098 -0.08738286 0.11085885
-0.023475993 0.049560428 -0.067819536 -0.075644866 -0.0026084436 0.059994202 -0.06260265 -0.08738286
0.11607574 -0.010433774 -0.08477442 -0.075644866 -0.106946185 0.026084436 -0.09390397 -0.12911797
0.045647763 -0.032605544 -0.13042217 -0.03521399 0.106946185 -0.031301323 -0.096512415 0.045647763
0.018259104 -0.08477442 -0.03651821 -0.088687085 0.03651821 0.1134673 -0.049560428 -0.059994202
-0.0717322 0.03651821 0.039126653 -0.10825041 -0.07825331 0.11737996 -0.018259104 0.09390397
0.1017293 0.06521109 0.06390687 0.12259685 -0.0039126654 -0.112163074 0.07825331 0.027388658
-0.10825041 -0.022171771 0.031301323 -0.061298426 0.119988404 -0.037822433 -0.05868998 0.07694909
0.07955753 -0.07694909 -0.061298426 0.006521109 0.04303932 0.0 -0.1134673 -0.12129263
-0.10303352 -0.03521399 -0.0717322 0.10042508 -0.09781664 -0.106946185 0.10303352 0.11085885
-0.0899913 -0.014346439 -0.12781374 0.027388658 0.09520819 -0.1252053 -0.020867549 -0.03521399
-0.10042508 0.0717322 0.037822433 -0.099120855 0.10564197 0.037822433 0.020867549 -0.024780214
0.112163074 -0.106946185 -0.112163074 -0.06521109 0.11085885 -0.005216887 0.018259104 0.0039126654
-0.028692879 0.12650952 0.07434064 -0.06260265 0.099120855 -0.07955753 -0.053473093 -0.11737996
-0.06390687 0.09390397 0.013042218 -0.08216597 0.10955463 0.08216597 0.07303642 0.08738286
-0.048256207 0.029997101 -0.12650952 -0.07694909 0.10564197 -0.08607864 0.091295525 0.03651821
0.037822433 0.006521109 -0.007825331 0.04303932 -0.088687085 -0.06390687 -0.018259104 -0.052168872
0.011737997 -0.106946185 0.119988404 0.053473093 0.075644866 -0.088687085 0.0026084436 -0.11868419
0.05086465 0.026084436 -0.10303352 -0.06260265 -0.11607574 0.009129552 0.11607574 -0.106946185
0.013042218 0.0013042218 0.027388658 0.024780214 0.07694909 0.03521399 -0.07825331 -0.031301323
0.048256207 0.014346439 -0.053473093 0.010433774 0.067819536 0.099120855 -0.029997101 -0.099120855
-0.013042218 0.033909768 -0.049560428 0.013042218 0.0899913 0.023475993 -0.0026084436 0.059994202

sequential/lstm/while/lstm_cell/MatMul_1 i1 [64, 126] scale=0.0015355675 zero_point=0
00000000: 3aa8 18bf e6eb fec8 1119 1521 f613 5814
00000010: ecf7 2eb0 11a9 ae5a babf 55d9 a804 3f0b
00000020: 3ebd a939 42ff 4f16 c1c8 a6a4 c4f2 ddeb
00000030: 2743 f2f0 fa0c 2e35 3406 e5ea 3127 13a7
00000040: d14e ee32 d748 3740 ba36 10b9 a821 30db
00000050: b03e 26fb ab41 d52f f047 0e36 b208 03be
00000060: ff0b cde6 d6c2 b018 22fc 0dba bf44 2ecb
00000070: eae4 0bd0 c60d eed5 362d 3e1b 47c9 3da9
00000080: 2318 43e5 06cc cced f2bb 1f1d fbb1 355c
00000090: f7fe 1832 f924 cc2b efd7 36fa 32e3 56b4
000000a0: f9c5 d332 e03d f8e5 150c cbfd d414 ad13
000000b0: 28b3 c436 3aaa 21ec 1326 bc35 c923 384f
000000c0: 2c01 d403 0bf5 afd5 e3ec 0f0b b222 2705
000000d0: fd24 1126 fffa e622 1fb6 48be d418 04e8
000000e0: e81b 344a 192d c1e8 fc4f 14b2 48cc 4630
000000f0: cfdd ec4c 2a01 bc05 b53e b63b b3be 3904
0.089062914 -0.13512993 0.03685362 -0.09981188 -0.039924756 -0.032246917 -0.003071135 -0.08599178
0.026104648 0.038389187 0.032246917 0.050673727 -0.015355675 0.02917578 0.13512993 0.03071135
-0.03071135 -0.013820107 0.0706361 -0.1228454 0.026104648 -0.13359436 -0.12591653 0.13820107
-0.10748972 -0.09981188 0.13052323 -0.05988713 -0.13512993 0.00614227 0.09674075 0.016891241
0.09520518 -0.10288302 -0.13359436 0.08752734 0.101347454 -0.0015355675 0.12130983 0.033782482
-0.09674075 -0.08599178 -0.13820107 -0.1412722 -0.09213404 -0.021497944 -0.05374486 -0.032246917
0.05988713 0.10288302 -0.021497944 -0.02456908 -0.009213405 0.01842681 0.0706361 0.081385076
0.07984951 0.009213405 -0.04146032 -0.033782482 0.0752428 0.05988713 0.02917578 -0.13666551
-0.07217167 0.11977426 -0.027640214 0.076778375 -0.06295826 0.11056086 0.08445621 0.09827632
-0.10748972 0.08292064 0.02456908 -0.10902529 -0.13512993 0.050673727 0.07370724 -0.056815997
-0.1228454 0.09520518 0.05835156 -0.0076778373 -0.13052323 0.09981188 -0.0660294 0.07217167
-0.02456908 0.10902529 0.021497944 0.08292064 -0.11977426 0.01228454 0.0046067024 -0.101347454
-0.0015355675 0.016891241 -0.07831394 -0.039924756 -0.064493835 -0.09520518 -0.1228454 0.03685362
0.052209295 -0.00614227 0.019962378 -0.10748972 -0.09981188 0.10441859 0.0706361 -0.081385076
-0.033782482 -0.04299589 0.016891241 -0.07370724 -0.089062914 0.019962378 -0.027640214 -0.0660294
0.08292064 0.06910054 0.09520518 0.04146032 0.10902529 -0.08445621 0.093669616 -0.13359436
0.05374486 0.03685362 0.10288302 -0.04146032 0.009213405 -0.07984951 -0.07984951 -0.02917578
-0.021497944 -0.105954155 0.04760259 0.044531457 -0.0076778373 -0.12130983 0.081385076 0.1412722
-0.013820107 -0.003071135 0.03685362 0.076778375 -0.010748972 0.05528043 -0.07984951 0.0660294
-0.026104648 -0.06295826 0.08292064 -0.009213405 0.076778375 -0.044531457 0.1320588 -0.11670312
-0.010748972 -0.09059848 -0.06910054 0.076778375 -0.04913816 0.093669616 -0.01228454 -0.04146032
0.032246917 0.01842681 -0.081385076 -0.0046067024 -0.067564964 0.03071135 -0.1274521 0.02917578
0.0614227 -0.118238695 -0.09213404 0.08292064 0.089062914 -0.1320588 0.050673727 -0.03071135
0.02917578 0.05835156 -0.10441859 0.081385076 -0.08445621 0.05374486 0.08599178 0.12130983
0.067564964 0.0015355675 -0.067564964 0.0046067024 0.016891241 -0.016891241 -0.12438096 -0.0660294
-0.044531457 -0.03071135 0.02303351 0.016891241 -0.11977426 0.052209295 0.05988713 0.0076778373
-0.0046067024 0.05528043 0.026104648 0.05835156 -0.0015355675 -0.009213405 -0.039924756 0.052209295
0.04760259 -0.11363199 0.11056086 -0.101347454 -0.067564964 0.03685362 0.00614227 -0.03685362
-0.03685362 0.04146032 0.07984951 0.11363199 0.038389187 0.06910054 -0.09674075 -0.03685362
-0.00614227 0.12130983 0.03071135 -0.11977426 0.11056086 -0.07984951 0.10748972 0.07370724
-0.0752428 -0.05374486 -0.03071135 0.11670312 0.064493835 0.0015355675 -0.10441859 0.0076778373
-0.11516756 0.09520518 -0.11363199 0.09059848 -0.118238695 -0.101347454 0.08752734 0.00614227

sequential/lstm/while/lstm_cell/MatMul_2 i1 [64, 126] scale=0.0016267906 zero_point=0
00000000: bee8 ba3a 1e03 21d3 cbf2 13d6 c63e 21b7
00000010: 3926 b041 26d4 4435 b7cb feb2 e3d2 24e7
00000020: 3fcd 07eb f439 e606 cbbd e8d7 ea45 fb1e
00000030: f414 c710 2239 04c6 15af 1626 b4f5 1a29
00000040: da07 0be4 d2ba d4ca f226 fb08 0f3a c8bf
00000050: 21e8 1c1a df43 051d 2018 e8fa 29cb 181f
00000060: f0bd d2e0 fac5 1ff7 d924 c422 06e4 1fbc
00000070: 1ee4 2a28 f205 c40b e4dd f709 c71b dcc1
00000080: ee0f e22f f619 ff26 fddd bf33 0633 3c26
00000090: bff4 50f7 1655 c71c 5009 0316 02d7 d9fd
000000a0: cbdd 37e0 4840 ead4 f642 44de d124 f324
000000b0: f629 46f4 c3e1 c3cc d614 e336 19fb bc29
000000c0: 2d0a 0de7 3dd1 bcbf c923 d43e e2c8 f0eb
000000d0: c6f0 be3a 41e8 3fcb fbc9 38fa ccc2 18e6
000000e0: 02fd cb12 e648 3fb7 25bc b9b8 21dc b61a
000000f0: ffef cebf cc1a d7f6 dbe2 cd03 3236 c4f1
-0.10736818 -0.039042976 -0.113875344 0.094353855 0.048803717 0.004880372 0.05368409 -0.073205575
-0.0862199 -0.022775069 0.030909022 -0.06832521 -0.094353855 0.10086102 0.05368409 -0.11875571
0.092727065 0.061818045 -0.13014325 0.10574139 0.061818045 -0.071578786 0.110621765 0.0862199
-0.11875571 -0.0862199 -0.0032535812 -0.12688966 -0.047176927 -0.074832365 0.05856446 -0.040669765
0.10248781 -0.08296632 0.011387534 -0.034162603 -0.019521488 0.092727065 -0.042296555 0.009760744
-0.0862199 -0.10899497 -0.039042976 -0.06669842 -0.035789393 0.112248555 -0.008133953 0.048803717
-0.019521488 0.032535814 -0.092727065 0.02602865 0.055310883 0.092727065 0.0065071625 -0.094353855
0.034162603 -0.13177004 0.035789393 0.061818045 -0.12363609 -0.017894696 0.042296555 0.06669842
-0.061818045 0.011387534 0.017894696 -0.045550138 -0.074832365 -0.113875344 -0.071578786 -0.0878467
-0.022775069 0.061818045 -0.008133953 0.013014325 0.024401858 0.094353855 -0.091100276 -0.10574139
0.05368409 -0.039042976 0.045550138 0.042296555 -0.05368409 0.10899497 0.008133953 0.047176927
0.0520573 0.039042976 -0.039042976 -0.009760744 0.06669842 -0.0862199 0.039042976 0.05043051
-0.02602865 -0.10899497 -0.074832365 -0.0520573 -0.009760744 -0.095980644 0.05043051 -0.014641115
-0.06344483 0.05856446 -0.097607434 0.055310883 0.009760744 -0.045550138 0.05043051 -0.110621765
0.048803717 -0.045550138 0.06832521 0.06507163 -0.022775069 0.008133953 -0.097607434 0.017894696
-0.045550138 -0.056937672 -0.014641115 0.014641115 -0.092727065 0.04392335 -0.05856446 -0.10248781
-0.02928223 0.024401858 -0.048803717 0.07645916 -0.016267907 0.040669765 -0.0016267906 0.061818045
-0.004880372 -0.056937672 -0.10574139 0.08296632 0.009760744 0.08296632 0.097607434 0.061818045
-0.10574139 -0.019521488 0.13014325 -0.014641115 0.035789393 0.1382772 -0.092727065 0.045550138
0.13014325 0.014641115 0.004880372 0.035789393 0.0032535812 -0.06669842 -0.06344483 -0.004880372
-0.0862199 -0.056937672 0.089473486 -0.0520573 0.11712892 0.1041146 -0.035789393 -0.071578786
-0.016267907 0.10736818 0.110621765 -0.055310883 -0.07645916 0.05856446 -0.021148277 0.05856446
-0.016267907 0.06669842 0.113875344 -0.019521488 -0.09923423 -0.05043051 -0.09923423 -0.08459311
-0.06832521 0.032535814 -0.047176927 0.0878467 0.040669765 -0.008133953 -0.110621765 0.06669842
0.073205575 0.016267907 0.021148277 -0.040669765 0.09923423 -0.07645916 -0.110621765 -0.10574139
-0.089473486 0.056937672 -0.071578786 0.10086102 -0.048803717 -0.091100276 -0.02602865 -0.034162603
-0.094353855 -0.02602865 -0.10736818 0.094353855 0.10574139 -0.039042976 0.10248781 -0.0862199
-0.008133953 -0.089473486 0.091100276 -0.009760744 -0.08459311 -0.10086102 0.039042976 -0.042296555
0.0032535812 -0.004880372 -0.0862199 0.02928223 -0.042296555 0.11712892 0.10248781 -0.11875571
0.06019125 -0.110621765 -0.115502134 -0.11712892 0.05368409 -0.05856446 -0.1203825 0.042296555
-0.0016267906 -0.027655441 -0.08133953 -0.10574139 -0.08459311 0.042296555 -0.06669842 -0.016267907
-0.06019125 -0.048803717 -0.08296632 0.004880372 0.08133953 0.0878467 -0.097607434 -0.024401858

sequential/lstm/while/lstm_cell/MatMul_3 i1 [64, 126] scale=0.001484077 zero_point=0
00000000: 33fc 4ce5 ba0f 3db7 ccf6 f7d6 4132 d243
00000010: 4055 361b 32f7 b9cf c517 43a8 faec b7ce
00000020: f4e0 bd26 04c6 e604 3953 f535 391f b2ee
00000030: f010 4e26 2703 1338 efc1 eebf e2dd 3114
00000040: 31bd 02a3 2904 fdbd cea5 1c0a bc33 a7bb
00000050: f6d5 cad9 e512 bead a33a efde 37e9 3fde
00000060: e935 e716 d0b4 adb4 cb1f 49bd 482f 3f2d
00000070: d4ac ad3e 03c6 d343 f3f9 cd48 1d34 16dc
00000080: 46b8 d60a 2dab 5b43 47be f1df 30d7 c21b
00000090: 0ec6 cdaf 3be5 2c15 06b1 acbb 02cb 4633
000000a0: 2ac1 4aa8 27be 0157 02e1 362c 48c5 23bd
000000b0: eaa7 c922 2b0e 3c18 b0e4 4127 5c28 fc2e
000000c0: bf48 40b3 3a08 2a20 c8e5 bac2 e1d9 4c0e
000000d0: b7da e3ba d1d3 0929 2012 f012 2f16 eefd
000000e0: 1e19 3915 363c 44b4 e821 c615 130e c61a
000000f0: b547 2fc1 2645 b1b7 4f30 01e8 d42a 19b5
0.07568792 -0.005936308 0.11278985 -0.04007008 -0.10388539 0.022261154 0.0905287 -0.10833762
-0.077172 -0.01484077 -0.013356693 -0.062331233 0.096465 0.07420385 -0.06826754 0.099433154
0.094980925 0.12614654 0.08014016 0.04007008 0.07420385 -0.013356693 -0.10536946 -0.07271977
-0.08756054 0.03413377 0.099433154 -0.13059877 -0.008904462 -0.02968154 -0.10833762 -0.07420385
-0.017808923 -0.047490463 -0.099433154 0.056394923 0.005936308 -0.08607646 -0.038586 0.005936308
0.08459239 0.123178385 -0.016324846 0.07865608 0.08459239 0.046006385 -0.115758 -0.026713386
-0.023745231 0.023745231 0.115758 0.056394923 0.057879 0.004452231 0.028197462 0.083108306
-0.025229309 -0.09349685 -0.026713386 -0.096465 -0.044522308 -0.051942695 0.07271977 0.02968154
0.07271977 -0.099433154 0.002968154 -0.13801916 0.060847156 0.005936308 -0.004452231 -0.099433154
-0.07420385 -0.135051 0.041554153 0.01484077 -0.100917235 0.07568792 -0.13208285 -0.10240131
-0.01484077 -0.06381531 -0.08014016 -0.057879 -0.04007008 0.026713386 -0.09794908 -0.123178385
-0.13801916 0.08607646 -0.025229309 -0.050458618 0.08162423 -0.03413377 0.09349685 -0.050458618
-0.03413377 0.07865608 -0.037101924 0.032649692 -0.071235694 -0.11278985 -0.123178385 -0.11278985
-0.07865608 0.046006385 0.10833762 -0.099433154 0.106853545 0.06975162 0.09349685 0.066783465
-0.065299384 -0.12466247 -0.123178385 0.09201277 0.004452231 -0.08607646 -0.066783465 0.099433154
-0.019293 -0.010388538 -0.07568792 0.106853545 0.04303823 0.077172 0.032649692 -0.053426772
0.10388539 -0.106853545 -0.062331233 0.01484077 0.066783465 -0.12614654 0.135051 0.099433154
0.10536946 -0.09794908 -0.022261154 -0.04897454 0.071235694 -0.060847156 -0.09201277 0.04007008
0.020777076 -0.08607646 -0.07568792 -0.12021023 0.08756054 -0.04007008 0.065299384 0.031165617
0.008904462 -0.11724208 -0.12466247 -0.10240131 0.002968154 -0.07865608 0.10388539 0.07568792
0.062331233 -0.09349685 0.10982169 -0.13059877 0.057879 -0.09794908 0.001484077 0.1291147
0.002968154 -0.046006385 0.08014016 0.065299384 0.106853545 -0.08756054 0.051942695 -0.099433154
-0.032649692 -0.13208285 -0.08162423 0.050458618 0.06381531 0.020777076 0.089044616 0.035617847
-0.11872616 -0.041554153 0.096465 0.057879 0.13653508 0.05936308 -0.005936308 0.06826754
-0.096465 0.106853545 0.094980925 -0.11427393 0.08607646 0.011872616 0.062331233 0.047490463
-0.083108306 -0.04007008 -0.10388539 -0.09201277 -0.046006385 -0.057879 0.11278985 0.020777076
-0.10833762 -0.056394923 -0.04303823 -0.10388539 -0.06975162 -0.066783465 0.013356693 0.060847156
0.047490463 0.026713386 -0.023745231 0.026713386 0.06975162 0.032649692 -0.026713386 -0.004452231
0.044522308 0.037101924 0.08459239 0.031165617 0.08014016 0.089044616 0.100917235 -0.11278985
-0.035617847 0.04897454 -0.08607646 0.031165617 0.028197462 0.020777076 -0.08607646 0.038586
-0.11130577 0.10536946 0.06975162 -0.09349685 0.056394923 0.10240131 -0.11724208 -0.10833762
0.11724208 0.071235694 0.001484077 -0.035617847 -0.065299384 0.062331233 0.037101924 -0.11130577
